checkpoints/6_1.pt (torch_old, 45075 bytes, 27 tensors)

lstm1.weight_ih f4 [64, 1]
-0.0007649677 -0.008017585 0.102131076 0.07822771 0.0210092 0.010782729 -0.0009603795 0.008207088
0.015327402 0.001312587 0.08604912 0.37129024 -0.0007974843 -2.0224097 0.18539254 0.1548607
-0.5260118 -0.21100082 -0.4451787 0.67202514 0.13231167 -0.022955375 -0.14805609 0.16230093
-0.70377386 -0.029124897 0.4132162 -0.052780926 0.13014303 0.39396182 -0.043484725 -0.2325735
0.005898204 0.10503247 -0.13767427 -0.15878184 -0.05600666 0.0073193638 -0.0042502997 -0.0012697817
0.044752005 -0.00075764954 0.04267821 -0.1519588 0.09635983 -0.0015220391 0.009697576 0.005612792
0.1021815 0.25163534 0.0024438691 -0.06144952 0.022911321 0.13086718 -0.1554895 0.010825953
0.034136645 0.50254136 0.00988776 0.11066724 0.114620894 -0.0021333375 0.30467105 -0.002705045
00000000: 1d88 48ba 305c 03bc 192a d13d da35 a03d
00000010: 7c1b ac3c 0baa 303c fac1 7bba 0677 063c
00000020: c91f 7b3c 1c0b ac3a 853a b03d c119 be3e
00000030: 440e 51ba 296f 01c0 8bd7 3d3e ce93 1e3e
00000040: b6a8 06bf 9910 58be 76ee e3be d709 2c3f
00000050: b67c 073e e90c bcbc 049c 17be 3732 263e
00000060: 862a 34bf 5697 eebc 1391 d33e d030 58bd
00000070: 3744 053e 5db5 c93e 0a1d 32bd bf27 6ebe
00000080: b945 c13b 431b d73d 7cfa 0cbe b597 22be
00000090: 3d67 65bd 46d7 ef3b 1946 8bbb ce6e a6ba
000000a0: e14d 373d 009d 46ba 59cf 2e3d 169b 1bbe
000000b0: 4d58 c53d 287f c7ba 95e2 1e3c 83eb b73b
000000c0: 8944 d13d 59d6 803e 5229 203b 7eb2 7bbd
000000d0: 86b0 bb3c 0c02 063e a438 1fbe 575f 313c
000000e0: ded2 0b3d 8da6 003f 4500 223c 82a5 e23d
000000f0: 5cbe ea3d 77cf 0bbb d8fd 9b3e 2047 31bb

lstm1.weight_hh f4 [64, 16]
-1.2931218 0.6588833 -0.8727796 0.345537 -0.45913726 0.40774128 -0.32999137 -0.0533328
-0.15892388 0.43738994 0.030038511 -0.1718512 0.7213243 -1.634391 0.2627488 0.5729508
-0.35234907 2.3547935 0.55407214 0.20271717 0.90842474 -1.5960411 0.97346115 0.91687226
0.6054665 2.128773 -1.0647063 0.8411462 -0.5213961 0.69891375 -0.35171622 -3.9888818
0.18113086 -0.9339412 0.5066114 0.6779136 -0.16402367 -0.102096125 0.5918072 0.23004088
0.83392966 0.17355198 -0.060204733 0.279751 -1.1531368 -0.3359339 0.14055224 0.5614086
-2.4444978 -0.99481666 -1.2879598 0.7925958 -2.4967065 -0.5888003 1.1335326 -1.8672172
-1.5982192 -0.49917012 0.5947249 -0.6707684 0.93329376 0.9424586 -1.6754533 0.9154839
-0.27125528 -1.0124724 0.5203922 0.112434976 0.6883231 -0.23079789 -0.72714514 0.070246905
-0.01993199 -0.23113592 0.7738189 -0.1826783 -0.04218065 0.19938298 0.31646535 0.13264027
1.8070495 0.9060074 -0.8192299 -2.0302498 2.6403623 -0.6829582 0.12552495 1.7611948
0.20859973 1.1984401 -0.8840031 3.4009733 -2.7543633 1.4010073 -1.2698137 1.3113
0.35750288 0.1396203 -0.10847686 -1.0282121 -0.5584245 -0.5473208 0.7020809 1.437117
0.4757631 -0.18760224 0.17344294 0.4423182 -1.2314708 0.6470702 0.7109821 0.67023265
2.8330426 0.5856872 -0.82949805 -2.707689 2.021212 -1.4809053 1.3835472 2.3704967
-0.81726474 0.63525647 -1.5759076 1.5588244 -1.4532915 2.1711662 -1.3614122 -0.77879775
-0.29652673 -1.1225543 0.2960758 -1.3880843 1.1509236 -1.5562011 0.7351852 0.61309224
-0.6648562 -0.15869117 -1.7244669 1.270725 -1.608081 0.4103303 -0.36126626 -0.26796937
0.46111414 1.4370279 0.09487729 -1.8042095 1.2746806 -0.73106325 0.17294365 1.7953796
-0.8679394 1.0521297 -1.646161 1.6588107 -0.77960634 1.2420366 -0.8954798 -2.9256182
1.0965096 -0.22939 -2.5316067 1.4814281 -1.4524176 -1.0796854 1.4003963 -1.0791287
-1.920818 1.1429374 1.0349 -1.0906504 1.6096474 1.7153983 -2.7788756 -0.6253002
-0.33661345 -1.0546901 0.687041 1.1793278 -0.22346736 0.07973503 -1.1829325 -0.9220434
-0.69539917 -0.6319404 -0.52772593 0.27323085 0.1574523 0.11223178 0.53752744 -0.38346308
0.43954086 -1.2317957 0.20469336 -0.021905687 -0.11729907 -0.1478734 -1.2774076 0.7152771
-0.6601751 -1.9408715 -0.18839087 -0.9102088 0.4986981 -1.1399938 0.54977155 0.96486056
2.0937953 -0.41046017 -1.1297375 -0.6320928 0.5132414 -1.1102524 0.17768984 0.0896756
-0.52754056 -0.39855513 -0.048397318 0.80985135 -0.47794542 0.47911847 -1.0661956 -0.172774
0.71190155 -1.2237793 1.4532223 -1.9140582 1.152699 0.347265 -0.9688319 1.1851507
-0.053299937 -1.8879844 0.37719345 1.1541983 -1.3323281 -0.12250097 1.3407097 2.117212
-1.198928 0.91298336 0.16257328 1.2554513 -0.0242659 -0.30058074 -0.2433617 -1.0257941
-0.48816144 0.81881267 -0.29241115 0.5921167 -0.82291096 -0.5352518 -0.055910103 -0.3372222
00000000: 0485 a5bf 93ac 283f 7c6e 5fbf 3aea b03e
00000010: 0a14 ebbe 77c3 d03e a1f4 a8be 7e73 5abd
00000020: f1bc 22be 93f1 df3e 5313 f63c c3f9 2fbe
00000030: b6a8 383f b933 d1bf 0387 863e e7ac 123f
00000040: 1967 b4be f0b4 1640 acd7 0d3f 1795 4f3e
00000050: 868e 683f 134b ccbf c034 793f 24b8 6a3f
00000060: daff 1a3f d13d 0840 4c48 88bf 5b55 573f
00000070: 377a 05bf 03ec 323f 2614 b4be d749 7fc0
00000080: 5e7a 393e c516 6fbf 49b1 013f bf8b 2d3f
00000090: d2f5 27be c617 d1bd ad80 173f d68f 6b3e
000000a0: 6a7c 553f 9cb7 313e 3d99 76bd 863b 8f3e
000000b0: fd99 93bf 87ff abbe edec 0f3e 79b8 0f3f
000000c0: a772 1cc0 4eac 7ebf dedb a4bf 8fe7 4a3f
000000d0: 0aca 1fc0 9ebb 16bf 9917 913f f900 efbf
000000e0: 7292 ccbf 3a93 ffbe e43f 183f 7ab7 2bbf
000000f0: 57ec 6e3f f844 713f 4175 d6bf 275d 6a3f
00000100: f9e1 8abe b298 81bf 6c38 053f 4f44 e63d
00000110: f135 303f 4856 6cbe 2f26 3abf 9cdd 8f3d
00000120: 6a48 a3bc e5ae 6cbe ff18 463f 0510 3bbe
00000130: 9ec5 2cbd 0d2b 4c3e bf07 a23e dad2 073e
00000140: 664d e73f 1af0 673f 0db9 51bf 9def 01c0
00000150: b2fb 2840 59d6 2ebf 9d89 003e d56e e13f
00000160: 2b9b 553e 7c66 993f 074e 62bf 8ca9 5940
00000170: 7d47 30c0 3554 b33f 4189 a2bf aed8 a73f
00000180: 9e0a b73e a0f8 0e3e 1e29 debd 749c 83bf
00000190: e8f4 0ebf 371d 0cbf 93bb 333f 73f3 b73f
000001a0: 3997 f33e cd1a 40be 079b 313e 8877 e23e
000001b0: d6a0 9dbf 65a6 253f ec02 363f 5e94 2b3f
000001c0: 9250 3540 99ef 153f fc59 54bf c74a 2dc0
000001d0: 8a5b 0140 4e8e bdbf 1318 b13f 38b6 1740
000001e0: 4338 51bf 2ba0 223f 57b7 c9bf 8f87 c73f
000001f0: 7505 babf 63f4 0a40 c142 aebf 4a5f 47bf
00000200: 5ad2 97be dcaf 8fbf 3f97 973e bfac b1bf
00000210: 7751 933f 9931 c7bf 1935 3c3f 9df3 1c3f
00000220: 0434 2abf f07f 22be 55bb dcbf 1ea7 a23f
00000230: 99d5 cdbf d016 d23e e4f7 b8be 4833 89be
00000240: 2717 ec3e 88f0 b73f 064f c23d 56f0 e6bf
00000250: bc28 a33f f626 3bbf 2418 313e 00cf e53f
00000260: 4731 5ebf 30ac 863f 67b5 d2bf e953 d43f
00000270: 4894 47bf 0efb 9e3f 2a3e 65bf 543d 3bc0
00000280: 6d5a 8c3f 36e5 6abe d805 22c0 709f bd3f
00000290: d2e8 b9bf 2233 8abf 3040 b33f e420 8abf
000002a0: 5ddd f5bf c64b 923f 9a77 843f 6f9a 8bbf
000002b0: ed08 ce3f 2c92 db3f 19d9 31c0 ad13 20bf
000002c0: 9958 acbe 1600 87bf ebe1 2f3f 37f4 963f
000002d0: a1d4 64be 1f4c a33d 556a 97bf 090b 6cbf
000002e0: ae05 32bf d9c6 21bf 0c19 07bf eae4 8b3e
000002f0: 2d3b 213e c7d9 e53d 669b 093f 4655 c4be
00000300: 800b e13e 7bab 9dbf 239b 513e 8e73 b3bc
00000310: 7f3a f0bd 206c 17be 1882 a3bf 661c 373f
00000320: 3c01 29bf 7a6e f8bf 89e9 40be 7203 69bf
00000330: 5b55 ff3e 51eb 91bf d4bd 0c3f 1a01 773f
00000340: be00 0640 d627 d2be 3d9b 90bf d5d0 21bf
00000350: ca63 033f c01c 8ebf 53f4 353e d7a7 b73d
00000360: e60c 07bf 6b0f ccbe 443c 46bd 6b52 4f3f
00000370: 43b5 f4be 044f f53e 1979 88bf abeb 30be
00000380: 2e3f 363f cda4 9cbf 3003 ba3f dcff f4bf
00000390: a48b 933f b8cc b13e 5e05 78bf 05b3 973f
000003a0: 0951 5abd 79a9 f1bf 801f c13e c5bc 933f
000003b0: ba89 aabf cae1 fabd 609c ab3f 6780 0740
000003c0: 7976 99bf 47b9 693f 9c79 263e a1b2 a03f
000003d0: 48c9 c6bc b8e5 99be cf33 79be 394d 83bf
000003e0: 4cf0 f9be b59d 513f eab6 95be f694 173f
000003f0: 4baa 52bf 4306 09bf fe01 65bd 63a8 acbe

lstm1.bias_ih f4 [64]
8.870051 -2.9782956 10.314737 8.774404 9.354465 -2.3990495 10.416607 -0.35817656
5.1673155 -2.4282691 2.7509687 5.701966 9.360575 6.829607 11.151355 9.726076
-1.7732801 -1.4084613 -1.6245675 -1.0241044 -1.6764088 -3.2203305 -2.973404 -4.216305
-2.1613603 -1.8251693 -2.2093077 -2.4182637 -2.61582 -1.199857 -2.66864 -1.8083001
-1.0285532 -3.4265177 2.515012 5.802616 -9.173667 4.169821 -0.41306925 -6.9762807
7.8482823 -4.473279 6.5989943 -5.8603644 6.711821 -6.7203526 0.3144962 3.4819615
9.146417 8.277027 14.816784 -0.8654446 0.13849175 7.615686 12.88321 9.125145
-1.6321106 7.277229 8.959258 5.3860435 4.715545 14.407931 9.726227 -2.6207092
00000000: bbeb 0d41 659c 3ec0 2a09 2541 f563 0c41
00000010: e3ab 1541 078a 19c0 6caa 2641 eb62 b7be
00000020: a65a a540 c368 1bc0 df0f 3040 8176 b640
00000030: eac4 1541 248c da40 f36b 3241 029e 1b41
00000040: d8fa e2bf 7648 b4bf d4f1 cfbf da15 83bf
00000050: 9094 d6bf e519 4ec0 404c 3ec0 f8eb 86c0
00000060: ba53 0ac0 269f e9bf 4c65 0dc0 d5c4 1ac0
00000070: 9869 27c0 ea94 99bf ffca 2ac0 6176 e7bf
00000080: a2a7 83bf 114c 5bc0 f5f5 2040 08af b940
00000090: 57c7 12c1 2c6f 8540 d07d d3be b13d dfc0
000000a0: 2125 fb40 1a25 8fc0 f62a d340 1b88 bbc0
000000b0: 3dc7 d640 210d d7c0 a505 a13e 75d8 5e40
000000c0: b957 1241 b46e 0441 8c11 6d41 c78d 5dbf
000000d0: c8d0 0d3e b3b3 f340 a121 4e41 9800 1241
000000e0: 00e9 d0bf 0fdf e840 1f59 0f41 785a ac40
000000f0: bfe5 9640 e386 6641 a09e 1b41 b3b9 27c0

lstm1.bias_hh f4 [64]
8.597368 -3.06931 10.078956 8.342636 9.365644 -2.7339766 10.477836 -0.25633076
5.112889 -2.5331573 2.7981777 5.7642016 9.280607 6.523647 11.036355 9.634933
-1.771274 -1.6115385 -1.4900553 -1.0116243 -1.813576 -3.3919096 -2.9119473 -3.9776793
-2.0975783 -1.75685 -1.9032426 -2.1642537 -2.4686887 -1.5691022 -2.6858704 -1.7073786
-0.60411566 -3.7231033 2.7642787 5.780292 -9.118614 4.3727655 -0.5286419 -6.936313
7.90169 -4.7625127 6.7259426 -5.6731925 6.614706 -6.623167 0.44114137 3.308413
9.0775795 8.634989 14.451115 -0.94429606 -0.13423331 7.8820443 12.730174 9.025903
-1.4317818 6.8421636 9.0633335 5.8277683 4.5653534 14.370371 9.717634 -2.777593
00000000: d28e 0941 936f 44c0 6743 2141 707b 0541
00000010: aed9 1541 79f9 2ec0 37a5 2741 c93d 83be
00000020: c99c a340 401f 22c0 5815 3340 5774 b840
00000030: 5e7d 1441 b7c1 d040 e994 3041 b028 1a41
00000040: 1bb9 e2bf e546 cebf 22ba bebf e87c 81bf
00000050: 4223 e8bf 0c15 59c0 585d 3ac0 4c92 7ec0
00000060: b93e 06c0 76e0 e0bf 749d f3bf 2283 0ac0
00000070: fffe 1dc0 57d8 c8bf 4de5 2bc0 628b dabf
00000080: 53a7 1abf 5347 6ec0 f1e9 3040 27f8 b840
00000090: d8e5 11c1 b2ed 8b40 1355 07bf 47f6 ddc0
000000a0: a5da fc40 8166 98c0 ec3a d740 cb8a b5c0
000000b0: acab d340 fcf0 d3c0 48dd e13e 0abd 5340
000000c0: c43d 1141 ea28 0a41 c437 6741 63bd 71bf
000000d0: 7574 09be b539 fc40 cbae 4b41 196a 1041
000000e0: a044 b7bf 01f3 da40 6a03 1141 147d ba40
000000f0: 6017 9240 0aed 6541 6e7b 1b41 15c4 31c0

lstm2.weight_ih f4 [64, 16]
23.503122 -1.0533417 -1.4172581 -27.041357 24.976337 2.2139456 0.55774766 7.968603
-0.14881547 -1.2143486 -20.62084 20.155544 -21.322113 -4.152823 1.1536325 2.063672
6.4528832 -18.57893 -0.22400367 -0.48218602 -0.25222978 8.710545 0.18678442 1.4948534
0.83580697 -9.563882 0.11169875 -0.07341052 0.13123041 -1.7091032 0.081487104 18.520136
31.343853 0.14319125 -0.6123763 -40.47895 29.445303 -5.1546564 4.126721 55.50175
1.1140618 0.24884331 -30.897394 30.536625 -30.865685 9.843638 -1.972359 0.027549008
7.7894874 -13.325836 4.6842003 -6.6300836 7.122483 12.978806 -2.3242385 1.2691125
-7.8503475 -11.337924 -5.007784 4.6681204 -4.5802684 2.2228017 1.8718612 12.431762
7.0948434 -6.65773 -24.62529 -1.0607121 -1.342541 6.3698053 13.812863 -1.1655147
-4.530247 -5.3036485 3.6524096 -4.1050377 2.436523 23.090227 -0.9005472 6.9062343
6.1918397 -6.0778055 -4.1920776 -2.0169752 -2.6227238 5.8397875 3.6350136 -2.493128
-1.1741816 -4.1361837 0.53163344 -0.7193837 -0.017420176 10.371852 -0.967935 5.9690876
0.47237965 -9.362472 -0.03820784 0.18511964 -0.46681318 5.6606297 11.750826 -3.2863615
1.3429172 -11.494652 0.11225524 -0.19417164 0.16370815 0.07645836 1.3546885 7.8654237
6.556969 -10.2548065 -0.07358528 0.68434495 9.73174 -0.24121659 -0.29710245 -3.881111
0.7842381 -12.704216 -0.110049255 0.04780602 -0.09690407 0.61442006 0.58638567 11.822185
32.88447 -0.39224893 0.36055645 -45.642136 31.884315 0.6626012 0.2729087 30.143282
-0.07563952 -0.6116914 -32.03016 31.34862 -31.678999 -1.3110502 -0.2513335 0.35592654
-11.5231695 -14.052093 -0.42885143 -0.8934379 0.046883978 3.5658529 1.0471519 -18.486656
1.6043493 -9.958109 0.08110098 -0.41161945 0.07946839 0.8820683 -2.1912358 13.814206
1.8959488 -9.447299 -14.477014 -1.8634926 0.10111295 8.151935 10.287681 0.13504714
-1.7935259 -6.392773 0.87142 -2.2706304 3.7412825 12.940927 2.180047 8.299912
0.3819744 -2.7598636 -0.1254921 -0.5048671 -0.062366586 2.0138905 0.052500967 -4.5449247
0.072960615 -4.61991 0.04711088 -0.0578428 0.059418254 0.058353968 -6.2990694 3.0032337
0.18806 -8.76277 -0.10446875 -0.7214128 0.25579977 0.030268708 -0.19654348 10.619252
1.1055162 -8.076445 0.06789862 -0.15889546 0.09450235 0.14652716 0.09147481 8.776101
31.001305 -0.35911363 1.1487931 -48.542187 66.370766 -1.0320704 0.056232844 31.070032
4.862491 -1.7634819 -28.01676 24.699623 -30.586994 -2.1140647 2.4301043 2.0781553
1.0655239 -3.4304464 -0.15355445 0.111069374 6.8411646 9.731983 -0.2944226 -1.5702437
1.2301216 -3.6917305 -0.072401576 -0.07403303 0.014996235 0.4627999 0.9432016 3.686382
1.7047828 -8.636388 -0.5631004 1.0752218 -0.28167215 2.105651 -1.1821624 -1.7177217
-6.133238 -4.005782 0.76235676 -0.6952589 0.59172237 0.11382232 0.92638654 8.345254
00000000: 6506 bc41 e7d3 86bf b768 b5bf b354 d8c1
00000010: 8acf c741 49b1 0d40 8dc8 0e3f ccfe fe40
00000020: 1563 18be c66f 9bbf 7bf7 a4c1 8e3e a141
00000030: b093 aac1 ede3 84c0 3baa 933f 3413 0440
00000040: 057e ce40 a6a1 94c1 3861 65be 16e1 f6be
00000050: 4324 81be 645e 0b41 6a44 3f3e 5b57 bf3f
00000060: 72f7 553f a905 19c1 50c2 e43d 4158 96bd
00000070: 4461 063e e5c3 dabf b6e2 a63d 3d29 9441
00000080: 36c0 fa41 baa0 123e b1c4 1cbf 72ea 21c2
00000090: fb8f eb41 f2f2 a4c0 190e 8440 cb01 5e42
000000a0: 9499 8e3f c8d0 7e3e dd2d f7c1 024b f441
000000b0: ecec f6c1 8b7f 1d41 4276 fcbf 75ae e13c
000000c0: 7b43 f940 a036 55c1 f8e4 9540 a529 d4c0
000000d0: 61eb e340 30a9 4f41 53c0 14c0 4772 a23f
000000e0: 0c36 fbc0 2368 35c1 c43f a0c0 3e61 9540
000000f0: 8f91 92c0 6242 0e40 2699 ef3f 7fe8 4641
00000100: f508 e340 200c d5c0 9800 c5c1 6ac5 87bf
00000110: 62d8 abbf 72d5 cb40 7d01 5d41 962f 95bf
00000120: c9f7 90c0 7db7 a9c0 14c1 6940 785c 83c0
00000130: feef 1b40 c9b8 b841 438a 66bf dfff dc40
00000140: 8d23 c640 627d c2c0 8025 86c0 1f16 01c0
00000150: b5da 27c0 8adf ba40 10a4 6840 698f 1fc0
00000160: 954b 96bf 9e5b 84c0 2119 083f 8829 38bf
00000170: c2b4 8ebc 1bf3 2541 97ca 77bf c402 bf40
00000180: bfdb f13e afcc 15c1 d37f 1cbd 0190 3d3e
00000190: 2302 efbe e123 b540 6203 3c41 bf53 52c0
000001a0: b6e4 ab3f 18ea 37c1 13e6 e53d eed4 46be
000001b0: 1ca3 273e 3396 9c3d 6f66 ad3f 8db1 fb40
000001c0: b1d2 d140 b013 24c1 e1b3 96bd 3b31 2f3f
000001d0: 35b5 1b41 7b01 77be d01d 98be 1f64 78c0
000001e0: d4c3 483f 7844 4bc1 8161 e1bd 3fd0 433d
000001f0: a475 c6bd a24a 1d3f 5f1d 163f ab27 3d41
00000200: b389 0342 dad4 c8be db9a b83e 8c91 36c2
00000210: 1413 ff41 3ba0 293f b0ba 8b3e 7125 f141
00000220: e5e8 9abd cf97 1cbf e21e 00c2 f9c9 fa41
00000230: 976e fdc1 7ed0 a7bf c9ae 80be 013c b63e
00000240: e75e 38c1 5fd5 60c1 6a92 dbbe 59b8 64bf
00000250: 6a09 403d ef36 6440 1309 863f ace4 93c1
00000260: 515b cd3f 6a54 1fc1 4518 a63d c9bf d2be
00000270: 53c0 a23d 3acf 613f 353d 0cc0 fd06 5d41
00000280: 73ae f23f 2328 17c1 d9a1 67c1 ed86 eebf
00000290: 4e14 cf3d 536e 0241 579a 2441 cc49 0a3e
000002a0: 4292 e5bf 9991 ccc0 6215 5f3f 0252 11c0
000002b0: 2c71 6f40 090e 4f41 e485 0b40 71cc 0441
000002c0: 2692 c33e 9ba1 30c0 0081 00be f83e 01bf
000002d0: 1b74 7fbd 95e3 0040 410b 573d 0670 91c0
000002e0: 606c 953d 4dd6 93c0 57f7 403d 92ec 6cbd
000002f0: 8e60 733d 9204 6f3d fa91 c9c0 fb34 4040
00000300: cd92 403e 4e34 0cc1 b6f3 d5bd 82ae 38bf
00000310: 30f8 823e 15f6 f73c b242 49be 75e8 2941
00000320: 8e81 8d3f 1e39 01c1 6f0e 8b3d 7eb5 22be
00000330: 738a c13d 370b 163e 2557 bb3d e96a 0c41
00000340: ac02 f841 bedd b7be a70b 933f 332b 42c2
00000350: d5bd 8442 e21a 84bf 6954 663d 6d8f f841
00000360: 8799 9b40 c6b9 e1bf 5322 e0c1 d498 c541
00000370: 2ab2 f4c1 d64c 07c0 d486 1b40 7f00 0540
00000380: 1663 883f 6f8c 5bc0 613d 1dbe 5778 e33d
00000390: d2ea da40 34b6 1b41 8fbe 96be bffd c8bf
000003a0: a074 9d3f 5045 6cc0 4747 94bd a19e 97bd
000003b0: c5b2 753c 1cf4 ec3e a975 713f afed 6b40
000003c0: 5336 da3f a52e 0ac1 5927 10bf dea0 893f
000003d0: 5537 90be fcc2 0640 1951 97bf 4ede dbbf
000003e0: 7c43 c4c0 5e2f 80c0 d029 433f 7dfc 31bf
000003f0: 1e7b 173f ad1b e93d ab27 6d3f 2986 0541

lstm2.weight_hh f4 [64, 16]
1.3720572 -1.90735 -2.3823347 -0.7820828 -0.28290313 -1.2099652 0.36452064 0.91968983
-0.9412486 -2.1082268 0.58797705 -0.14389327 0.70378923 0.7686739 -0.5632001 -0.82156837
1.6154522 -2.1045551 -0.48138213 -0.04227272 1.4554763 0.5020725 -3.8654466 0.04057542
0.33905935 -1.7482257 -0.72246987 4.5471044 -0.4458234 -0.50049764 -0.48767173 -1.0470072
2.160308 0.75122213 -1.2685168 -0.22355507 -2.2620566 -1.0846869 1.7496858 2.0393195
-1.6054535 0.68268245 1.5142032 -1.8958192 -1.0155195 1.1963121 -1.0771366 -0.18987608
1.3409445 -0.47643253 -1.6309525 -0.75148946 -0.016685387 -0.9354617 1.8808585 1.6993325
-1.2055492 -1.0397549 0.22292711 -0.4160823 0.17923613 1.2526387 -1.56853 0.31129223
-3.2208803 5.9203124 2.728454 3.9722986 3.69735 3.6002092 -0.9940451 -2.86418
3.4022472 5.5301757 -3.2680798 2.51014 -3.4239116 -2.1590471 2.88697 5.375753
0.7163092 0.45453438 -0.141674 0.27057737 0.06267928 -0.503876 1.5635122 0.8315026
-0.5110305 -1.5193853 0.72788817 -1.3125019 0.01023753 2.095891 -0.67176265 -0.94038856
-1.3569291 -3.1066883 1.3648065 2.0431561 -0.10557537 2.7895162 -2.5536644 -1.8315779
3.3400023 -4.584414 -0.5822705 2.477447 2.0530996 -1.3576035 3.8211184 -3.1393747
1.6712294 -6.315248 -2.843634 -2.550578 -2.380671 -1.7367911 -2.9492629 1.8821387
-2.7542143 -4.843541 2.6303675 2.019473 3.431705 2.5235786 -0.7952937 -5.0813494
0.97587144 2.9810057 -1.2448119 -0.60055524 -0.59571064 -0.008115395 4.269602 2.6345665
-0.53306985 0.9375662 0.6224132 -2.360559 -0.41477025 1.5206199 -2.8317573 0.65652883
1.3007064 1.9383792 -1.0250952 -2.2850704 -3.8077729 -1.9632924 3.866362 2.3470962
-1.2372383 2.0354946 3.0110397 -2.0830014 0.0641876 2.5784037 -1.9775794 -0.08063606
-0.82265884 2.8725657 1.7296978 2.3426802 3.3917751 2.8757486 -2.0047085 -1.5126786
2.1655455 3.3636754 -2.6442792 2.533279 -2.7831607 -1.3024775 1.8830359 3.7173018
-3.2506235 7.0966234 0.74756116 2.8981373 3.830417 0.7697842 5.5035267 1.8866407
2.3111112 6.931439 -3.928822 -3.4718504 -1.5572506 -0.6769364 0.92481023 5.2205434
0.12988903 3.732011 -0.009451205 -0.12922308 1.1412212 0.41750032 3.178318 0.27734196
-0.93361205 2.2543404 -0.87672424 -2.2422907 0.28139365 0.031070316 0.57733923 2.586289
1.2678324 -2.259286 -2.3061898 -1.985534 -2.6564183 -1.5772982 -0.42507204 0.0454272
-0.5488437 -2.035723 2.3928256 -0.068025745 0.34569356 1.2901338 0.47039634 -1.2887853
1.5400057 1.4124022 -0.39415705 -1.986637 -1.5695101 -0.16382173 4.4559937 4.51852
-1.9704542 -1.5019714 1.1946573 -2.4362676 -0.16604966 2.9637675 -1.8699008 0.32266095
0.40418047 0.41535735 -1.8058523 -0.09139117 0.2863343 0.4072121 0.36831674 -1.1109923
-0.13760088 -1.1881605 -1.2282312 0.1879227 0.804024 0.87626326 1.2247949 0.20595036
00000000: 929f af3f 0b24 f4bf 2c78 18c0 9436 48bf
00000010: aed8 90be 24e0 9abf 73a2 ba3e cb70 6b3f
00000020: abf5 70bf 30ed 06c0 aa85 163f c258 13be
00000030: 882b 343f d0c7 443f e22d 10bf 4e52 52bf
00000040: 23c7 ce3f 08b1 06c0 b877 f6be 2926 2dbd
00000050: 0c4d ba3f d387 003f 7a63 77c0 6932 263d
00000060: 3099 ad3e dcc5 dfbf c9f3 38bf e181 9140
00000070: f742 e4be 9d20 00bf 1cb0 f9be 5504 86bf
00000080: 7c42 0a40 1850 403f c25e a2bf 9feb 64be
00000090: 89c5 10c0 05d7 8abf b4f5 df3f 3684 0240
000000a0: 807f cdbf 47c4 2e3f 69d1 c13f 34aa f2bf
000000b0: 8bfc 81bf c120 993f 9ddf 89bf e06e 42be
000000c0: 12a4 ab3f f7ee f3be 0dc3 d0bf 9d61 40bf
000000d0: cbaf 88bc 6b7a 6fbf f9bf f03f ba83 d93f
000000e0: 704f 9abf b016 85bf 0147 643e bd08 d5be
000000f0: ad89 373e 7756 a03f 97c5 c8bf b261 9f3e
00000100: e722 4ec0 3373 bd40 fe9e 2e40 243a 7e40
00000110: 62a1 6c40 d469 6640 bd79 7ebf ba4e 37c0
00000120: 6bbe 5940 33f7 b040 3828 51c0 22a6 2040
00000130: 5e21 5bc0 d42d 0ac0 1ec4 3840 2b06 ac40
00000140: 0a60 373f bbb8 e83e fd12 11be 1e89 8a3e
00000150: ff5d 803d 04fe 00bf 2b21 c83f 5bdd 543f
00000160: e5d2 02bf 387b c2bf e156 3a3f 1000 a8bf
00000170: 50bb 273c 1423 0640 a3f8 2bbf 4ebd 70bf
00000180: daaf adbf fbd3 46c0 fbb1 ae3f 12c3 0240
00000190: e637 d8bd 6f87 3240 3d6f 23c0 2571 eabf
000001a0: 99c2 5540 85b3 92c0 ae0f 15bf 7e8e 1e40
000001b0: fc65 0340 f4c5 adbf 348d 7440 84eb 48c0
000001c0: d8ea d53f 8316 cac0 19fe 35c0 ac3c 23c0
000001d0: ea5c 18c0 2c4f debf b9c0 3cc0 ece9 f03f
000001e0: 0c45 30c0 4afe 9ac0 f157 2840 0c3f 0140
000001f0: 0ea1 5b40 5082 2140 5e98 4bbf 6a9a a2c0
00000200: b6d2 793f ccc8 3e40 ff55 9fbf fdbd 19bf
00000210: 7e80 18bf 6ff6 04bc 94a0 8840 bd9c 2840
00000220: 4477 08bf 5704 703f 7956 1f3f 6613 17c0
00000230: c45c d4be aca3 c23f 833b 35c0 4612 283f
00000240: 8c7d a63f cf1c f83f 5236 83bf 983e 12c0
00000250: 8db2 73c0 2a4d fbbf 7a72 7740 d336 1640
00000260: d35d 9ebf 8b45 0240 e0b4 4040 e54f 05c0
00000270: ca74 833d 9104 2540 5221 fdbf 8524 a5bd
00000280: c599 52bf 1ed8 3740 bd66 dd3f 79ee 1540
00000290: d812 5940 440c 3840 254d 00c0 749f c1bf
000002a0: 4c98 0a40 7546 5740 df3b 29c0 3e21 2240
000002b0: 4e1f 32c0 95b7 a6bf 5207 f13f 46e8 6d40
000002c0: 370a 50c0 8a17 e340 2b60 3f3f 157b 3940
000002d0: 8d25 7540 9410 453f e41c b040 717d f13f
000002e0: 3fe9 1340 59ce dd40 d271 7bc0 cc32 5ec0
000002f0: fd53 c7bf b44b 2dbf 5dc0 6c3f b10e a740
00000300: a101 053e 45d9 6e40 3ad9 1abc 0e53 04be
00000310: 8913 923f 9ac2 d53e 9069 4b40 c4ff 8d3e
00000320: 3301 6fbf 1d47 1040 0071 60bf b181 0fc0
00000330: d412 903e 2d87 fe3c 81cc 133f c285 2540
00000340: 5548 a23f 2498 10c0 9d98 13c0 fa25 febf
00000350: c202 2ac0 e8e4 c9bf 0ba3 d9be df11 3a3d
00000360: 0581 0cbf 4949 02c0 0e24 1940 1551 8bbd
00000370: bffe b03e 1b23 a53f cad7 f03e ebf6 a4bf
00000380: e81e c53f 98c9 b43f f4ce c9be 1f4a febf
00000390: b5e5 c8bf e2c0 27be 8097 8e40 b797 9040
000003a0: d837 fcbf 9940 c0bf 88ea 983f cfeb 1bc0
000003b0: ec08 2abe 5eae 3d40 e958 efbf d133 a53e
000003c0: bef0 ce3e b8a9 d43e 2b26 e7bf 4b2b bbbd
000003d0: 699a 923e 1b7e d03e 0394 bc3e ff34 8ebf
000003e0: 3fe7 0cbe a515 98bf ae36 9dbf cf6e 403e
000003f0: 84d4 4d3f ca52 603f 14c6 9c3f a7e4 523e

lstm2.bias_ih f4 [64]
0.8307974 3.5736182 -0.3083218 1.0835319 7.6252804 0.8438589 7.1414065 6.201559
0.1799229 -0.7617828 2.6650782 3.5066915 2.164087 0.49246392 2.982416 6.196802
-1.1853375 -1.1563705 -2.0863252 -1.7521572 -1.375067 -2.5972385 -0.7753364 -1.0838863
-3.2211897 -0.79994845 -0.9435229 -0.68811786 -1.0951259 -2.1710038 -2.0810773 -1.1475344
-0.100947395 -2.4970813 -3.497106 -1.2537092 0.33794442 -0.11184001 -2.4465077 -1.4776775
1.1908983 -3.6747358 -0.32388222 0.7881958 -0.26089716 -4.6147704 4.6697893 0.29693428
2.047671 1.2837294 -0.29355824 -1.61369 0.08306446 -0.087444216 5.9108815 4.60341
8.410778 5.1024075 0.14839348 6.312287 3.3354845 1.2268144 2.0727322 5.6196804
00000000: 23af 543f 29b6 6440 5bdc 9dbe 2cb1 8a3f
00000010: 4c02 f440 2307 583f 6786 e440 2c73 c640
00000020: b53d 383e 3304 43bf a490 2a40 a26d 6040
00000030: 6780 0a40 3b24 fc3e e7df 3e40 344c c640
00000040: 24b9 97bf f303 94bf 5a86 05c0 b046 e0bf
00000050: 3202 b0bf 2839 26c0 727c 46bf c9bc 8abf
00000060: f927 4ec0 6cc9 4cbf b78a 71bf 7e28 30bf
00000070: 162d 8cbf baf1 0ac0 5f30 05c0 68e2 92bf
00000080: 82bd cebd 2ed0 1fc0 96d0 5fc0 8b79 a0bf
00000090: 0d07 ad3e 600c e5bd 9593 1cc0 8924 bdbf
000000a0: 5b6f 983f df2e 6bc0 e4d3 a5be 33c7 493f
000000b0: 5094 85be 33ac 93c0 ea6e 9540 c507 983e
000000c0: 0b0d 0340 3f51 a43f 444d 96be 658d cebf
000000d0: b31d aa3d f415 b3bd f125 bd40 224f 9340
000000e0: 8c92 0641 ec46 a340 76f4 173e 41fe c940
000000f0: 9478 5540 4108 9d3f a5a7 0440 6cd4 b340

lstm2.bias_hh f4 [64]
1.0035787 3.7190287 -0.16676047 1.2184988 7.9651127 0.8853488 7.203039 6.330304
0.14462689 -0.701759 2.9842863 3.8830984 2.2296875 0.72058815 3.1490288 6.2264013
-1.2826227 -1.3747202 -2.1777601 -1.6504985 -1.5496159 -2.6288664 -0.84029245 -0.7599187
-3.0347848 -0.7816692 -1.1679904 -0.82539093 -1.5096391 -2.2406814 -1.9896894 -1.1042236
-0.2704021 -2.2585006 -3.1341734 -1.6323515 -0.123328306 0.07930933 -2.5387824 -1.2423652
1.091196 -3.5762393 0.15910804 0.6118584 0.012020792 -4.5264707 4.863682 0.13317995
2.012949 1.3361042 -0.08846285 -1.7013234 0.11334348 -0.14627653 5.9353056 4.7201467
8.607605 5.1007915 0.44002914 6.397639 3.6944706 1.2829436 1.6823572 5.317641
00000000: 4475 803f 9104 6e40 42c3 2abe c5f7 9b3f
00000010: 34e2 fe40 38a6 623f 4c7f e640 da91 ca40
00000020: 1219 143e 7aa6 33bf 8cfe 3e40 af84 7840
00000030: 33b3 0e40 7778 383f b089 4940 ae3e c740
00000040: fb2c a4bf d5f6 afbf 6c60 0bc0 8943 d3bf
00000050: d059 c6bf 593f 28c0 681d 57bf 088a 42bf
00000060: ea39 42c0 791b 48bf b680 95bf d24c 53bf
00000070: db3b c1bf 5367 0fc0 24ae febf 3357 8dbf
00000080: 2572 8abe 468b 10c0 4c96 48c0 e5f0 d0bf
00000090: 8d93 fcbd ee6c a23d 697b 22c0 d305 9fbf
000000a0: 4fac 8b3f 1be1 64c0 38ed 223e c1a2 1c3f
000000b0: dbf2 443c d9d8 90c0 48a3 9b40 5360 083e
000000c0: 28d4 0040 7605 ab3f 032c b5bd f7c4 d9bf
000000d0: a020 e83d 84c9 15be 06ee bd40 710b 9740
000000e0: c0b8 0941 af39 a340 804b e13e 75b9 cc40
000000f0: 3572 6c40 7f37 a43f 7b57 d73f 1d2a aa40

FCout.weight f4 [1, 16]
74.82112 -81.06546 -82.9605 -86.9967 -100.34055 -95.31574 98.0661 100.114555
-91.75507 -84.68323 98.48953 -93.48603 111.90316 86.92339 -85.473526 -87.565834
00000000: 6aa4 9542 8421 a2c2 c7eb a5c2 4ffe adc2
00000010: 5dae c8c2 a9a1 bec2 d821 c442 a73a c842
00000020: 9982 b7c2 d05d a9c2 a4fa c442 d9f8 bac2
00000030: 6bce df42 c7d8 ad42 72f2 aac2 b521 afc2

exp_avg f4 [64, 1]
-3.4260125e-07 0.010428707 0.00867985 0.0003857093 -4.0503655e-06 0.032068644 -7.9426377e-10 -0.21344844
5.8148664e-05 -0.034042973 0.0022252246 -0.00027018096 -1.4808234e-12 0.0008721304 -1.3290182e-05 -0.01105532
0.00035326954 -3.4335964e-05 -1.9123227e-05 -1.4291146e-06 5.6729277e-05 3.3301195e-08 -0.0001608889 0.0024259135
6.4249264e-08 1.26955e-06 2.2553807e-06 5.7655785e-07 3.3636152e-06 2.3735709e-06 2.52816e-07 -1.8364696e-07
-0.17716585 0.0002991664 -0.0039147097 -1.2946087e-05 -0.0029972258 -1.1716996e-09 0.11787757 -6e-45
0.0007116879 4.8154214e-10 4.5676916e-09 -2.3468012e-07 8.038337e-05 2.403447e-15 -0.02926858 -7.7064016e-07
0.025816375 0.00016268127 -6e-45 0.0026406231 -0.0748827 -0.0001404245 0.00044771773 1.0673625e-05
0.032232065 -2.3007951e-05 -5.853997e-12 -1.01179e-05 -0.0038967498 -6.4043816e-14 -0.00016124525 -0.048313275
00000000: c2ee b7b4 2bdd 2a3c ee35 0e3c 0739 ca39
00000010: 60e8 87b6 695a 033d 5853 5ab0 3a92 5abe
00000020: a7e4 7338 a570 0bbd 13d5 113b 13a7 8db9
00000030: 4968 d0ab ae9f 643a e6f8 5eb7 5f21 35bc
00000040: 0937 b939 f603 10b8 d16a a0b7 01d0 bfb5
00000050: 99f0 6d38 0d07 0f33 49b4 28b9 13fc 1e3b
00000060: 68f9 8933 6865 aa35 255b 1736 c1c4 1a35
00000070: 78ba 6136 a349 1f36 c4ba 8734 7e30 45b4
00000080: f76a 35be 6fd9 9c39 f746 80bb 0533 59b7
00000090: 1b6d 44bb 8409 a1b0 cc69 f13d 0400 0080
000000a0: 9190 3a3a 845d 0430 d7f1 9c31 61fc 7bb4
000000b0: 7e93 a838 c62f 2d27 a9c4 efbc fddd 4eb5
000000c0: dd7c d33c 6c95 2a39 0400 0080 4e0e 2d3b
000000d0: 1a5c 99bd ea3e 13b9 a8bb ea39 df12 3337
000000e0: c505 043d 3301 c1b7 1ef8 cdac 0dc0 29b7
000000f0: 9d60 7fbb bf36 90a9 f113 29b9 24e4 45bd

exp_avg_sq f4 [64, 1]
1.9092909e-06 0.50885075 0.0030102679 0.002029293 0.000112707006 0.36256513 9.949907e-09 1.5249594
2.199739e-05 0.07044838 0.0016026857 2.7648432e-05 1.1982542e-08 4.9219057e-07 9.514041e-08 8.092586e-05
1.046917e-06 8.261569e-09 3.7078778e-09 9.440584e-08 3.3601034e-06 4.729324e-09 1.4891052e-05 0.0001496643
4.891051e-12 5.9579986e-07 5.638067e-09 1.6448312e-09 4.4029314e-08 2.0888754e-08 4.0127674e-08 4.5670768e-12
2.9944706 2.6782702e-06 0.00065916765 1.4750307e-05 0.00597375 7.782871e-07 2.8866107 3.5572627e-13
0.0025495936 2.3741554e-06 4.6568957e-06 2.71258e-05 4.508939e-05 2.1393431e-10 0.11520015 1.7213702e-07
0.009396371 0.00023538792 1.4695926e-10 0.00020477916 0.045610633 0.000142367 0.0056600175 0.0064958623
0.026300976 1.4247959e-05 2.3485712e-15 2.8678147e-07 0.00065387995 3.4548403e-10 3.999288e-05 0.4226924
00000000: 5e21 0036 0b44 023f ea47 453b e3fd 043b
00000010: 1d5d ec38 23a2 b93e 27f0 2a32 df31 c33f
00000020: 0987 b837 3e47 903d 3511 d23a 8eee e737
00000030: c7db 4d32 141f 0435 fe4f cc33 beb6 a938
00000040: cb83 8c35 c4ee 0d32 adcd 7e31 29bc ca33
00000050: 237e 6136 937f a231 95d4 7937 34ef 1c39
00000060: ac16 ac2c 0eef 1f35 f6b8 c131 5a10 e230
00000070: be1a 3d33 db6e b332 d858 2c33 92b0 a02c
00000080: 68a5 3f40 55bc 3336 fecb 2c3a 1678 7737
00000090: 72bf c33b 7beb 5035 3bbe 3840 8f41 c82a
000000a0: 1517 273b ae53 1f36 6e42 9c36 368c e337
000000b0: 5d1e 3d38 2839 6b2f 0eee eb3d aad4 3834
000000c0: 3df3 193c 77d2 7639 5b95 212f fdb9 5639
000000d0: 37d2 3a3d 5a48 1539 ab77 b93b 3edb d43b
000000e0: 2575 d73c 850a 6f37 7e3b 2927 f2f6 9934
000000f0: 2469 2b3a 8eee bd2f 07be 2738 236b d83e

exp_avg f4 [64, 16]
1.3724921e-12 -1.3664888e-13 1.364319e-12 1.1339432e-13 -1.7692386e-12 2.1464686e-16 -1.2938103e-12 -7.2735194e-14
1.7100948e-12 -4.5645614e-15 1.2585266e-12 -1.5716958e-13 -1.3969698e-17 9.468013e-17 -1.9317379e-13 2.2247939e-14
-6.2473405e-06 -2.9957132e-08 4.87064e-06 7.2324576e-07 -2.9262952e-07 5.4252394e-09 5.2574096e-06 -5.065091e-07
1.701927e-07 -4.128406e-09 -8.126826e-08 2.0973803e-07 5.376885e-07 -2.3506175e-06 1.6652417e-06 1.6476825e-08
1.4402782e-10 1.7332013e-13 1.5088261e-08 1.0542431e-06 4.9007167e-09 -2.6276177e-12 3.8667403e-09 6.885378e-09
-6.532214e-12 -4.2432896e-16 2.172336e-12 -3.5919537e-13 9.1626715e-12 1.8886739e-07 -4.2242954e-12 -3.1298685e-12
-5.4081983e-08 1.6344926e-12 -1.5902185e-07 1.4160535e-06 -6.7440936e-08 6.9995984e-12 2.9523582e-08 -2.9303897e-07
2.4453992e-09 -2.352301e-11 -3.5865635e-10 1.001667e-14 -4.9287772e-11 -1.80694e-06 2.5098391e-12 -2.4657806e-12
7.876036e-15 -7.457406e-16 4.798063e-14 1.6204609e-13 1.392741e-13 -5.455967e-18 1.7838124e-08 6.809414e-13
7.427374e-15 1.2015354e-16 -1.3086404e-16 -1.1383279e-15 -1.180185e-17 1.1776369e-11 -3.698693e-17 -2.006614e-17
3.245162e-07 -1.5778945e-10 8.054506e-06 1.0905953e-08 7.0899187e-06 -7.769217e-06 1.9763267e-07 -6.8357546e-09
2.8805516e-07 -4.88642e-10 -4.8474584e-07 2.6411385e-07 1.7326144e-08 2.2176869e-07 -1.2842495e-06 2.473251e-09
-1.1672902e-11 -3.942088e-15 1.3071191e-11 1.1813073e-11 -1.3613454e-12 7.397589e-15 -7.136534e-12 -3.6049594e-12
5.742489e-14 -1.3075903e-14 1.4972662e-12 -1.5729804e-12 1.0842773e-12 -1.2545759e-11 5.3501366e-13 -8.783518e-15
-8.6879504e-07 1.4365568e-09 5.4227207e-06 8.121961e-07 -2.990987e-07 8.452903e-09 -1.0208879e-05 -2.3538441e-06
1.1042e-06 5.13559e-10 8.664957e-06 -9.722314e-07 8.9231395e-07 -1.6839638e-07 -2.7277197e-06 1.4027792e-08
8.689528e-10 4.2026942e-14 5.1306333e-08 -1.1990813e-11 9.403208e-10 -2.2161299e-08 -5.804568e-08 4.897126e-08
-5.2400782e-08 2.22726e-10 -5.2281354e-08 5.3442548e-08 -5.2455345e-08 -4.6465265e-10 -5.191696e-08 -2.1432078e-11
-2.5367416e-07 -6.1472387e-09 9.696207e-07 1.8223589e-09 5.949556e-08 -3.804882e-09 1.2156371e-06 1.5453253e-07
-1.6912888e-07 -5.884493e-10 -9.497625e-08 1.6019985e-09 3.8055342e-07 8.732649e-08 4.4927358e-08 1.0053722e-10
-2.5416086e-06 -2.531592e-08 7.356447e-06 9.769618e-07 -4.8578163e-06 -5.0442184e-09 -4.7798226e-06 -3.3975556e-07
1.0022562e-07 -4.3905084e-09 5.916177e-06 -7.466188e-07 6.718015e-06 -4.3720975e-06 6.1531487e-06 8.680499e-09
3.7227755e-07 -7.0351563e-10 -5.386198e-07 -3.8812897e-07 -1.9647844e-08 2.0246335e-10 -1.966247e-07 6.98642e-08
-1.5164006e-10 -1.2911516e-09 2.0903671e-07 -1.8202807e-07 -1.9428624e-08 -1.7059456e-07 6.2531946e-08 5.1226456e-10
-1.2246097e-15 3.6393496e-19 4.0730674e-17 -1.26220424e-17 -8.059689e-17 5.0876616e-16 -5.4282926e-14 -3.1692915e-15
2.605247e-15 -6.2348655e-20 -4.7504572e-17 4.433244e-36 4.574375e-23 6e-45 -8.256469e-25 4.3182378e-16
2.4857776e-05 3.9745216e-09 -1.812529e-05 -3.7959816e-07 7.0218625e-06 1.07146985e-08 -1.9613408e-06 -2.805448e-07
1.2686162e-07 2.5483073e-09 -2.5704092e-05 2.1115755e-05 -2.284901e-06 2.2812449e-06 -2.2670607e-05 4.915092e-09
-2.0126804e-07 -1.6569913e-13 2.1219361e-07 2.0406476e-07 -2.0839815e-08 -1.4661022e-11 -1.2414472e-07 -5.493772e-08
-5.8937445e-11 2.4471815e-15 1.2127421e-08 -9.103158e-12 -1.0025607e-09 -2.0454092e-07 -1.1202028e-10 -1.7219708e-11
-1.0277073e-09 5.171503e-16 5.388772e-09 -2.4976705e-09 -2.5198186e-11 5.503371e-13 -3.1809284e-09 -1.6996059e-10
-2.3000636e-13 7.3664776e-19 8.7021345e-12 -1.8375848e-15 -7.443559e-12 2.8569518e-09 3.0133237e-15 3.1630875e-13
00000000: 3d29 c12b 5cda 19aa c602 c02b 6057 ff29
00000010: 8aff f8ab 9278 7725 6e16 b6ab fcc8 a3a9
00000020: a9ac f02b a674 a4a7 331f b12b 0cf5 30aa
00000030: 04d9 80a3 4951 da24 8e7e 59aa 4164 c828
00000040: 3fa0 d1b6 37aa 00b3 7b6e a336 1225 4235
00000050: b21a 9db4 e968 ba31 ce68 b036 0af7 07b5
00000060: 37be 3634 d8d9 8db1 b385 aeb3 5a34 6134
00000070: ac55 1035 4dbf 1db6 4581 df35 ec88 8d32
00000080: 3a5c 1e2f 2024 432a 709b 8132 847f 8d35
00000090: 2963 a831 f4e6 38ac 35dc 8431 6d94 ec31
000000a0: f4d4 e5ac e79b f4a5 54dd 182c 8235 caaa
000000b0: 0131 212d 79cb 4a34 12a1 94ac b33e 5cac
000000c0: c547 68b3 cd08 e62b 98bf 2ab4 3a0f be35
000000d0: 0cd4 90b3 c746 f62c 0b9b fd32 f852 9db4
000000e0: eb0b 2831 1ce9 cead 652c c5af bd71 3428
000000f0: 19c5 58ae fc85 f2b5 3e9d 302c 8e83 2dac
00000100: cee1 0d28 f2f1 56a6 e615 5829 9b72 362a
00000110: 07cf 1c2a 274a c9a2 733a 9932 00ab 3f2b
00000120: b8cc 0528 1187 0a25 3fe0 16a5 e30c a4a6
00000130: a9b4 59a3 0d2c 4f2d 7692 2aa4 d513 b9a3
00000140: 2b39 ae34 c87d 2daf d721 0737 e35c 3b32
00000150: f0e5 ed36 8858 02b7 db34 5434 efdf eab1
00000160: 00a6 9a34 2051 06b0 7b1f 02b5 88cb 8d34
00000170: 98d4 9432 501f 6e34 7a5e acb5 e4f5 2931
00000180: 145a 4dad 5807 8ea7 69f3 652d 5ad1 4f2d
00000190: a397 bfab 5c43 0528 2f18 fbac 2dad 7dac
000001a0: 324f 8129 f68d 6ba8 b3b8 d22b 9760 ddab
000001b0: 3599 982b 13b5 5cad cc97 162b d43a 1ea8
000001c0: 2437 69b5 5970 c530 d1f4 b536 b105 5a35
000001d0: d093 a0b4 4338 1132 cd46 2bb7 bcf6 1db6
000001e0: 0634 9435 802a 0d30 b55f 1137 9e7d 82b5
000001f0: 5987 6f35 72d0 34b4 de0d 37b6 e2fe 7032
00000200: 1edb 6e30 c445 3d29 e95b 5c33 d2f1 52ad
00000210: 993c 8130 365d beb2 e64d 79b3 7854 5233
00000220: 450f 61b3 cce3 742f f58b 60b3 b488 6533
00000230: 434b 61b3 0c72 ffaf 4dfb 5eb3 c084 bcad
00000240: b630 88b4 af37 d3b1 ea23 8235 8e76 fa30
00000250: 0f88 7f33 19bc 82b1 f928 a335 94ed 2534
00000260: cb99 35b4 70c0 21b0 bff5 cbb3 502d dc30
00000270: dd4e cc34 3f88 bb33 27f6 4033 6c15 dd2e
00000280: 8190 2ab6 4c76 d9b2 66d7 f636 2720 8335
00000290: 5300 a3b6 6a51 adb1 5d62 a0b6 a667 b6b4
000002a0: 9e3b d733 52db 96b1 9383 c636 416b 48b5
000002b0: 4f6b e136 08b4 92b6 2577 ce36 3d21 1532
000002c0: 70dd c734 8361 41b0 ac95 10b5 0a60 d0b4
000002d0: 11c6 a8b2 5e9c 5e2f c91f 53b4 4008 9633
000002e0: e2ba 26af 5c74 b1b0 9373 6034 7f73 43b4
000002f0: ffe3 a6b2 ad2c 37b4 4d49 8633 6acf 0c30
00000300: 207c b0a6 4cd4 d620 4bd6 3b24 e9d5 68a3
00000310: 02d8 b9a4 51a4 1226 f477 74a9 1c5f 64a7
00000320: 53ba 3b27 7337 939f 8013 5ba4 c191 bc04
00000330: 0534 5d1a 0400 0000 7d86 7f97 f1ed f825
00000340: ab85 d037 4390 8831 c40b 98b7 93cb cbb4
00000350: 579d eb36 be13 3832 949f 03b6 c99d 96b4
00000360: 7537 0834 4c1e 2f31 1e9f d7b7 bd21 b137
00000370: 4d56 19b6 7d17 1936 c22c beb7 9be1 a831
00000380: 231c 58b4 868f 3aaa 56d7 6334 e51c 5b34
00000390: 3d03 b3b2 b0f5 80ad a44c 05b4 a9f4 6bb3
000003a0: d59a 81ae 8856 3027 f658 5032 fb24 20ad
000003b0: 78ca 89b0 c89f 5bb4 d055 f6ae 5677 97ad
000003c0: 3c3f 8db0 f50e 1526 2428 b931 7ca3 2bb1
000003d0: 45a5 ddad f8e7 1a2b 7c97 5ab1 a7df 3aaf
000003e0: 697b 81aa 886b 5921 ee16 192d 7569 04a7
000003f0: cff2 02ad 0754 4431 0322 5927 e510 b22a

exp_avg_sq f4 [64, 16]
3.9638218e-14 2.1988397e-19 1.1725149e-13 4.3741315e-13 5.824481e-15 7.556555e-19 1.0195383e-12 3.131412e-14
1.3929403e-20 1.6391356e-20 3.9761444e-20 1.0466548e-16 6.519289e-18 6.0353724e-13 9.830657e-16 2.0817934e-17
2.3375705e-08 3.032343e-09 2.3141695e-08 1.9746103e-09 3.447527e-09 1.8941575e-09 2.6164233e-09 2.1380366e-09
8.905203e-09 6.935226e-11 2.2003959e-09 3.4309362e-09 8.252191e-09 3.4827605e-10 7.454887e-09 1.2838923e-10
1.5788327e-12 2.7705139e-18 2.7715714e-12 8.089048e-11 1.7581935e-13 1.4480738e-17 5.3634867e-11 1.6321562e-12
3.0527785e-17 2.098298e-18 2.4856327e-16 1.4496132e-16 2.4009337e-16 1.9569333e-09 1.286469e-16 9.59805e-19
2.0935473e-12 3.864251e-16 1.8143116e-09 1.5942022e-09 1.6388983e-12 9.806927e-16 1.14590726e-10 1.4639125e-11
1.8568714e-14 2.7868862e-15 1.5620708e-13 3.8680869e-16 3.0873417e-15 3.7136485e-09 1.5645486e-13 1.7998234e-17
1.2627189e-11 1.115025e-18 1.387578e-11 1.965548e-11 3.6975238e-14 4.3535864e-18 1.5260535e-12 6.820159e-13
6.38232e-17 1.1125224e-23 1.256264e-18 4.8849797e-19 7.1477785e-18 1.6537662e-11 5.0358182e-21 3.6833732e-20
2.663261e-08 2.0101225e-09 2.1132877e-08 1.0286002e-13 9.332588e-09 1.0476511e-08 1.3669068e-08 5.467905e-09
5.540054e-09 1.777509e-11 2.3673257e-08 1.1981414e-08 4.405958e-09 1.559425e-12 1.5357626e-08 3.6138879e-09
1.43818e-16 3.279731e-22 2.2153566e-16 1.5483032e-21 7.327205e-16 1.280534e-18 3.0365287e-17 8.5910666e-16
3.2134062e-18 2.0634938e-19 2.5743901e-16 1.6204448e-16 1.43875e-15 8.3782765e-21 5.389129e-16 1.3706892e-19
5.984878e-09 1.0616634e-09 3.0574785e-08 1.2479231e-09 2.470407e-08 4.778087e-09 3.034979e-08 5.494559e-09
9.46734e-09 3.0223402e-10 4.669412e-09 5.326795e-09 6.9461987e-09 1.215368e-09 5.5072347e-09 2.5591453e-09
2.6332785e-13 1.160613e-14 3.744242e-13 5.903754e-15 2.3042665e-13 1.1742151e-13 2.617875e-13 3.3288932e-13
3.9589257e-13 5.62513e-16 5.9812295e-13 6.019529e-13 6.008223e-13 1.1713667e-13 4.7641067e-14 2.0744832e-13
5.1598184e-09 1.3362407e-12 5.2745186e-09 5.923769e-13 2.4675234e-11 4.3450306e-09 5.1852904e-09 2.2638466e-11
2.3272507e-11 3.1944263e-11 5.2297637e-12 5.1425597e-09 4.504438e-11 8.890241e-11 6.2560014e-12 3.481024e-12
1.4137396e-09 5.136846e-14 3.1151575e-09 1.2231288e-10 2.9007e-10 6.6465125e-15 1.7700572e-09 3.4920778e-11
1.6196505e-12 5.016334e-14 8.8688595e-10 1.7430763e-09 1.7117519e-09 2.6315394e-09 1.8251464e-09 1.7213964e-15
1.1496632e-10 3.7242035e-16 1.8461382e-11 7.73289e-11 6.0855774e-12 7.487e-15 4.280157e-11 1.6718498e-11
3.8492603e-13 4.671229e-16 9.928454e-11 7.394786e-11 1.09431096e-10 2.5730166e-11 3.7845595e-11 1.0956759e-15
1.6113423e-14 1.7551865e-24 1.4986903e-16 1.9108872e-14 5.658541e-19 5.432184e-23 2.8213687e-15 6.0591633e-18
7.5456517e-22 4.6840462e-24 2.3080697e-19 1.0416094e-23 6.05124e-20 1.462761e-16 3.288741e-18 2.80763e-24
3.3562866e-09 2.2299037e-14 2.106403e-09 1.6203151e-10 1.8157461e-09 4.5014486e-15 1.2430585e-09 1.0165938e-11
6.6284597e-13 1.5035799e-14 1.3128907e-09 1.6701723e-09 1.5967666e-09 1.3614848e-09 9.872255e-10 2.1874804e-15
1.8891888e-11 3.513776e-15 1.0390351e-11 6.611528e-12 3.5653945e-13 9.470943e-17 5.389181e-12 4.771457e-13
3.0582944e-14 5.1538514e-16 7.0452753e-13 4.1198714e-14 1.174854e-12 1.4674532e-11 1.4016451e-14 6.338197e-17
3.6485222e-13 4.3788155e-19 1.085895e-13 5.3857645e-14 5.9336454e-15 1.2791152e-18 2.6414368e-12 8.343223e-15
5.59473e-18 7.653023e-18 2.4295867e-15 4.3115453e-19 1.4135758e-15 1.5853978e-13 4.6359344e-17 5.2370666e-20
00000000: c183 3229 edcb 8120 7103 042a e13d f62a
00000010: 5bd9 d127 b707 5f21 bd7c 8f2b b906 0d29
00000020: 3b8f 831e decf 9a1e a3c4 3b1f 9857 f124
00000030: f284 f022 71e1 292b b9ac 8d26 f502 c023
00000040: b8cb c832 8b61 5031 20c9 c632 b6b1 0731
00000050: 89e9 6c31 5f2a 0231 9bcc 3331 bdec 1231
00000060: 7ffd 1832 da81 982e c635 1731 abc5 6b31
00000070: 85c5 0d32 7f77 bf2f f112 0032 5b2a 0d2f
00000080: 7133 de2b 876d 4c22 3108 432c 4be1 b12e
00000090: 7af4 452a ad8f 8523 7ee3 6b2e a0b4 e52b
000000a0: d9c8 0c24 bbd3 1a22 7749 8f25 0821 2725
000000b0: 8767 8a25 bc7a 0631 dd51 1425 68a4 8d21
000000c0: ff51 132c 48c2 de25 6a5b f930 011b db30
000000d0: 89a7 e62b 2d55 8d26 d8fc fb2e 61c4 802d
000000e0: 8a40 a728 fad0 4827 a0df 2f2a e3fa de25
000000f0: 6777 5e27 3233 7f31 0b27 302a 2101 a623
00000100: ce23 5e2d 748c a421 f51a 742d 35e4 ac2d
00000110: 8c85 2629 769e a022 dfc5 d62b 6df8 3f2b
00000120: 912a 9324 7131 5719 5064 b921 dd2d 1021
00000130: 6eda 0323 8177 912d 723f be1d 40f1 2d1f
00000140: bbc5 e432 7322 0a31 b087 b532 c49e e729
00000150: 2855 2032 2ffc 3332 32d5 6a32 33e0 bb31
00000160: d55a be31 f259 9c2d 0b5a cb32 d1d6 4d32
00000170: 3763 9731 3578 db2b c7eb 8332 3058 7831
00000180: 95cf 2525 613f c61b c969 7f25 14f9 e91c
00000190: 3b31 5326 35f9 bc21 0109 0c24 e29e 7726
000001a0: 871b 6d22 469d 7320 4b67 9425 17d3 3a25
000001b0: 8258 cf26 dc42 1e1e c154 1b26 8ad2 2120
000001c0: 8ba3 cd31 f6e9 9130 5551 0333 6483 ab30
000001d0: d334 d432 7f2c a431 f259 0233 a7ca bc31
000001e0: cda5 2232 a827 a62f 9570 a031 fc06 b731
000001f0: 69ab ee31 f609 a730 263a bd31 f6dc 2f31
00000200: 8b3d 942a d413 5128 37c8 d22a 85b4 d427
00000210: fbb7 812a 7234 042a 8e5f 932a 6866 bb2a
00000220: 22de de2a 2222 2226 4d5b 282b 476f 292b
00000230: cf1d 292b 59e2 032a 698e 5629 e890 692a
00000240: 3e4a b131 250f bc2b 283b b531 41bd 262b
00000250: b00b d92d 4b4b 9531 4c2a b231 4b21 c72d
00000260: 07b5 cc2d 0b7e 0c2e 8601 b82c 6fb2 b031
00000270: 771b 462e 9c7f c32e 0d1d dc2c 8ef4 742c
00000280: 8a4d c230 cd57 6729 6e12 5631 047c 062f
00000290: b977 9f2f 4277 ef27 5a46 f330 4d95 192e
000002a0: 0ff2 e32b 65ea 6129 0dc9 7330 0c91 ef30
000002b0: ea42 eb30 88d6 3431 a1d8 fa30 5114 f826
000002c0: 49d0 fc2e 8baf d625 5663 a22d 4d0c aa2e
000002d0: 021e d62c b1df 0628 493e 3c2e b60e 932d
000002e0: b0b1 d82a 96a3 0626 3a54 da2e f29c a22e
000002f0: 3ba4 f02e 2f53 e22d 5a72 262e 4ee7 9d26
00000300: 0623 9128 0dcd 0718 88c9 2c25 0f1e ac28
00000310: ba02 2721 9757 831a 114d 4b27 2e8b df22
00000320: a70d 641c 8c34 b518 903e 8820 007a 4919
00000330: 80e1 8e1f 16a5 2825 90aa 7222 d73a 5918
00000340: 6ba4 6631 14da c828 3cc0 1031 d127 322f
00000350: e38d f930 892e a227 3cd8 aa30 51d7 322d
00000360: 1693 3a2b 316e 8728 3c71 b430 f78b e530
00000370: 3b75 db30 fd1e bb30 e9ae 8730 e49f 1d27
00000380: c02c a62d ba31 7d27 fbc9 362d 5a9f e82c
00000390: c0b6 c82a 9462 da24 6d9d bd2c f94d 062b
000003a0: bcbb 0929 b68c 1426 8f4e 462b e28a 3929
000003b0: 9458 a52b 1c14 812d 797f 7c28 1d26 9224
000003c0: bf64 cd2a 653d 0121 9685 f429 a38d 7229
000003d0: 38c8 d527 9bc3 bc21 e5df 392c 534c 1628
000003e0: bb68 ce22 612c 0d23 f711 2f27 3b82 fe20
000003f0: beb7 cb26 fb7f 322a 74cb 5524 4050 771f

exp_avg f4 [64]
-2.390644e-10 0.00012778613 -3.923529e-05 3.4309346e-06 1.0203189e-08 4.0216415e-05 8.27973e-12 0.0039858413
-1.1916729e-07 -0.0006003428 1.4302607e-05 7.6255187e-06 -3.547831e-14 9.942925e-05 1.3373935e-07 8.048756e-05
-1.7279584e-05 1.5181555e-06 9.714381e-07 -6.994775e-07 2.1371034e-06 -7.3805906e-10 1.7828966e-06 1.9290737e-05
-1.5754678e-08 1.2528632e-08 4.107752e-07 1.6968734e-09 2.0603854e-07 7.246744e-08 -1.6250253e-08 7.887644e-09
-0.0013753955 4.2761026e-06 -6.334903e-05 -1.4832452e-07 9.587684e-06 -8.6226816e-12 -0.0018038402 6e-45
-2.4360281e-06 7.7117635e-12 1.3686853e-11 3.2443248e-09 -6.3019985e-07 -1.3998204e-15 -0.0007321555 6.4195094e-09
-0.00013228168 -5.411962e-07 -6e-45 -5.8416328e-05 0.00025493657 -4.517719e-07 1.0591046e-06 -1.04915365e-08
0.0007093684 6.9761285e-07 -1.1667796e-13 -1.1300336e-06 4.721826e-05 9.79613e-15 1.8830982e-06 0.00056078716
00000000: 536d 83af 54fe 0539 9290 24b8 023f 6636
00000010: 1a4a 2f32 0cae 2838 97a8 112d a99b 823b
00000020: e9e8 ffb3 5360 1dba 3bf5 6f37 b5de ff36
00000030: b5c7 1fa9 ac84 d038 fe99 0f34 6ecb a838
00000040: a0f3 90b7 6dc3 cb35 5c62 8235 bac3 3bb5
00000050: 286b 0f36 4ae0 4ab0 dc4b ef35 8bd2 a137
00000060: e754 87b2 823d 5732 8388 dc34 6d37 e930
00000070: 713b 5d34 659f 9b33 af96 8bb2 3a82 0732
00000080: 9d46 b4ba 717b 8f36 40da 84b8 2243 1fb4
00000090: cada 2037 1bb1 17ad d56e ecba 0400 0000
000000a0: a57a 23b6 b2aa 072d 1bc8 702d c4f2 5e31
000000b0: 012b 29b5 42bc c9a6 20ee 3fba 9a92 dc31
000000c0: 18b5 0ab9 b846 11b5 0400 0080 0e04 75b8
000000d0: 02a9 8539 0f8b f2b4 8f26 8e35 443e 34b2
000000e0: e8f4 393a 9743 3b35 225e 03aa a9ab 97b5
000000f0: 380c 4638 ad78 3028 c3be fc35 ca01 133a

exp_avg_sq f4 [64]
6.6692825e-11 7.1736563e-06 4.2071495e-08 2.602699e-08 4.0127476e-10 8.004908e-06 2.3941354e-14 0.00052154326
9.588595e-10 1.794147e-06 1.9791777e-07 1.644888e-08 6.227121e-13 9.8446975e-09 1.2245534e-11 7.103868e-09
1.4715862e-09 1.817563e-11 1.5369676e-11 1.0227952e-09 2.939272e-10 4.7085567e-13 7.331776e-10 3.5303809e-09
1.01393164e-13 1.1653871e-09 1.854396e-11 4.075873e-13 9.782806e-12 6.5377787e-10 1.15343785e-11 2.7730607e-14
0.00016137767 8.4117074e-11 4.1544686e-07 3.712882e-10 7.1676465e-09 2.1490355e-11 0.00014418544 3.941413e-18
3.3621546e-08 4.629587e-11 4.3851055e-11 2.8881722e-10 8.927375e-10 3.1083793e-15 7.934801e-05 4.7923896e-12
3.0320862e-07 1.04522355e-08 5.0276503e-16 1.626985e-07 4.638147e-06 1.318758e-08 8.8719005e-09 1.13010096e-07
2.654665e-06 1.1104633e-08 3.596947e-20 3.7871412e-10 1.1797855e-07 1.1935968e-15 9.73708e-09 7.0190054e-06
00000000: b9a8 922e 3db5 f036 19b2 3433 f591 df32
00000010: 679a dc2f d14c 0637 01a5 d728 2db8 083a
00000020: dfc8 8330 6cce f035 3983 5434 784b 8d32
00000030: 2347 2f2b 7021 2932 fb6c 572d 4916 f431
00000040: d640 ca30 e1df 9f2d 6f31 872d 6892 8c30
00000050: 9396 a12f ba88 042b c988 4930 1e9b 7231
00000060: 2e51 e429 6a2b a030 491d a32d 8573 e52a
00000070: d719 2c2d 87b5 3330 39ea 4a2d 6dc6 f928
00000080: 7d37 2939 b4f9 b82e 950a df34 2b1e cc2f
00000090: 4947 f631 fa07 bd2d 7c30 1739 9869 9122
000000a0: 4867 1033 849c 4b2e e6db 402e 69c7 9e2f
000000b0: d164 7530 7afb 5f27 a367 a638 029e a82c
000000c0: adc8 a234 6b91 3332 83e9 1026 39b2 2e34
000000d0: 61a1 9b36 978f 6232 086b 1832 f5af f233
000000e0: cc26 3236 b1c6 3e32 6cdc 291f 4633 d02f
000000f0: 655b fd33 f303 ac26 2148 2732 cc84 eb36

exp_avg f4 [64]
-2.390644e-10 0.00012778613 -3.923529e-05 3.4309346e-06 1.0203189e-08 4.0216415e-05 8.27973e-12 0.0039858413
-1.1916729e-07 -0.0006003428 1.4302607e-05 7.6255187e-06 -3.547831e-14 9.942925e-05 1.3373935e-07 8.048756e-05
-1.7279584e-05 1.5181555e-06 9.714381e-07 -6.994775e-07 2.1371034e-06 -7.3805906e-10 1.7828966e-06 1.9290737e-05
-1.5754678e-08 1.2528632e-08 4.107752e-07 1.6968734e-09 2.0603854e-07 7.246744e-08 -1.6250253e-08 7.887644e-09
-0.0013753955 4.2761026e-06 -6.334903e-05 -1.4832452e-07 9.587684e-06 -8.6226816e-12 -0.0018038402 6e-45
-2.4360281e-06 7.7117635e-12 1.3686853e-11 3.2443248e-09 -6.3019985e-07 -1.3998204e-15 -0.0007321555 6.4195094e-09
-0.00013228168 -5.411962e-07 -6e-45 -5.8416328e-05 0.00025493657 -4.517719e-07 1.0591046e-06 -1.04915365e-08
0.0007093684 6.9761285e-07 -1.1667796e-13 -1.1300336e-06 4.721826e-05 9.79613e-15 1.8830982e-06 0.00056078716
00000000: 536d 83af 54fe 0539 9290 24b8 023f 6636
00000010: 1a4a 2f32 0cae 2838 97a8 112d a99b 823b
00000020: e9e8 ffb3 5360 1dba 3bf5 6f37 b5de ff36
00000030: b5c7 1fa9 ac84 d038 fe99 0f34 6ecb a838
00000040: a0f3 90b7 6dc3 cb35 5c62 8235 bac3 3bb5
00000050: 286b 0f36 4ae0 4ab0 dc4b ef35 8bd2 a137
00000060: e754 87b2 823d 5732 8388 dc34 6d37 e930
00000070: 713b 5d34 659f 9b33 af96 8bb2 3a82 0732
00000080: 9d46 b4ba 717b 8f36 40da 84b8 2243 1fb4
00000090: cada 2037 1bb1 17ad d56e ecba 0400 0000
000000a0: a57a 23b6 b2aa 072d 1bc8 702d c4f2 5e31
000000b0: 012b 29b5 42bc c9a6 20ee 3fba 9a92 dc31
000000c0: 18b5 0ab9 b846 11b5 0400 0080 0e04 75b8
000000d0: 02a9 8539 0f8b f2b4 8f26 8e35 443e 34b2
000000e0: e8f4 393a 9743 3b35 225e 03aa a9ab 97b5
000000f0: 380c 4638 ad78 3028 c3be fc35 ca01 133a

exp_avg_sq f4 [64]
6.6692825e-11 7.1736563e-06 4.2071495e-08 2.602699e-08 4.0127476e-10 8.004908e-06 2.3941354e-14 0.00052154326
9.588595e-10 1.794147e-06 1.9791777e-07 1.644888e-08 6.227121e-13 9.8446975e-09 1.2245534e-11 7.103868e-09
1.4715862e-09 1.817563e-11 1.5369676e-11 1.0227952e-09 2.939272e-10 4.7085567e-13 7.331776e-10 3.5303809e-09
1.01393164e-13 1.1653871e-09 1.854396e-11 4.075873e-13 9.782806e-12 6.5377787e-10 1.15343785e-11 2.7730607e-14
0.00016137767 8.4117074e-11 4.1544686e-07 3.712882e-10 7.1676465e-09 2.1490355e-11 0.00014418544 3.941413e-18
3.3621546e-08 4.629587e-11 4.3851055e-11 2.8881722e-10 8.927375e-10 3.1083793e-15 7.934801e-05 4.7923896e-12
3.0320862e-07 1.04522355e-08 5.0276503e-16 1.626985e-07 4.638147e-06 1.318758e-08 8.8719005e-09 1.13010096e-07
2.654665e-06 1.1104633e-08 3.596947e-20 3.7871412e-10 1.1797855e-07 1.1935968e-15 9.73708e-09 7.0190054e-06
00000000: b9a8 922e 3db5 f036 19b2 3433 f591 df32
00000010: 679a dc2f d14c 0637 01a5 d728 2db8 083a
00000020: dfc8 8330 6cce f035 3983 5434 784b 8d32
00000030: 2347 2f2b 7021 2932 fb6c 572d 4916 f431
00000040: d640 ca30 e1df 9f2d 6f31 872d 6892 8c30
00000050: 9396 a12f ba88 042b c988 4930 1e9b 7231
00000060: 2e51 e429 6a2b a030 491d a32d 8573 e52a
00000070: d719 2c2d 87b5 3330 39ea 4a2d 6dc6 f928
00000080: 7d37 2939 b4f9 b82e 950a df34 2b1e cc2f
00000090: 4947 f631 fa07 bd2d 7c30 1739 9869 9122
000000a0: 4867 1033 849c 4b2e e6db 402e 69c7 9e2f
000000b0: d164 7530 7afb 5f27 a367 a638 029e a82c
000000c0: adc8 a234 6b91 3332 83e9 1026 39b2 2e34
000000d0: 61a1 9b36 978f 6232 086b 1832 f5af f233
000000e0: cc26 3236 b1c6 3e32 6cdc 291f 4633 d02f
000000f0: 655b fd33 f303 ac26 2148 2732 cc84 eb36
