checkpoints/KOSPI_2.pt (torch_old, 191575 bytes, 16 tensors)

lstm.weight_ih f4 [256, 8]
000000 dd cc 39 be 5d d2 9d be ca a9 86 be 72 56 26 be
       -0.18144555 -0.30824557 -0.26301414 -0.16243914
000010 e0 32 e8 3b 8b e1 3a be 8e ad 37 be 0c 83 a6 be
       0.007086143 -0.182501 -0.179373 -0.32521856
000020 6e d6 ae bc 85 1a 1f 3e b3 a2 f6 3d 28 84 5c 3c
       -0.021342482 0.1553746 0.12042751 0.013459243
000030 f7 81 16 bd c3 07 cc bc 74 6e 9a bf ad 57 d9 be
       -0.036745038 -0.024906045 -1.2064958 -0.42449704
000040 f3 b1 e3 3c 4f 75 3d bf 14 c7 59 bf ac b9 f1 bd
       0.027794814 -0.74007124 -0.85069394 -0.11802992
000050 4f 4b dc bd 9a 2b 08 be f9 16 a7 be 73 b1 21 bf
       -0.107565515 -0.13297883 -0.32634714 -0.6316139
000060 4d 05 24 be d8 46 43 bf 86 cb 3e bf 3f 5f f6 bd
       -0.16017647 -0.76279974 -0.745293 -0.120298855
000070 ad f0 b4 bd 19 21 e7 bd 81 6e 5f bf b9 46 b7 be
       -0.08834968 -0.1128561 -0.8727799 -0.35796145
000080 53 27 68 bc 8a 84 d2 be 88 48 67 be 83 ce 8a bd
       -0.014169532 -0.41116744 -0.22586262 -0.0677767
000090 cd c9 8e bd 23 2e 1a 3a 03 94 a0 bf 9d 43 1b bf
       -0.06972084 0.00058815087 -1.254517 -0.60650045
0000a0 68 b7 5a 3e 86 c4 19 3e b8 e7 ce bd 18 db 1d 3e
       0.21359026 0.15016374 -0.101027906 0.15415609
0000b0 b6 ec 0e 3e f3 38 aa 3c c4 5e 12 3f c4 40 30 3f
       0.13957486 0.020779109 0.5717585 0.68848825
0000c0 97 ce 2e 3e 73 f6 13 3e 78 c1 6e 3c ed 4d 36 3e
       0.17070995 0.14449482 0.014572494 0.17803164
0000d0 01 b7 92 3d 07 9c a1 bd df 36 cb be 0d 46 f9 bd
       0.071638115 -0.07891088 -0.396903 -0.12171564
0000e0 6b 7b b9 be 99 fd 7d bf 14 92 7a bf 5c c8 be be
       -0.36226973 -0.99215084 -0.9787915 -0.37262237
0000f0 f3 a9 3f be a7 a8 92 be b6 e0 98 bf 37 1e 82 be
       -0.18717174 -0.28644297 -1.1943576 -0.25413677
000100 38 0b 57 bf 25 47 56 bf bb fb 69 bf 56 4c 50 bf
       -0.84001493 -0.8370231 -0.91399735 -0.8136648
000110 0e d9 39 bf 54 ef 26 bf 08 11 2e 3f 44 72 0a 3e
       -0.72596824 -0.65208936 0.6799474 0.13520151
000120 ae 99 ac 3d ec 95 24 bd 55 d4 98 3c 10 4d 92 bd
       0.084277496 -0.04018204 0.018655935 -0.07143605
000130 cc b4 26 3e 31 e2 10 bd 2b 61 3c bf 86 03 12 be
       0.16279906 -0.035371963 -0.73585767 -0.14259157
000140 3a 53 25 bd bd 63 f2 be ca c5 30 bf 84 b1 d4 bd
       -0.040362574 -0.4734172 -0.690518 -0.10385421
000150 a5 ed 9e bb db 0f 46 bd 83 e6 27 bf bf c5 8b be
       -0.004850107 -0.048354965 -0.6558611 -0.27299306
000160 04 23 6f bf 2c 47 47 bf 89 c5 3f bf 52 7e 84 bf
       -0.93412805 -0.77842975 -0.7491079 -1.035105
000170 ad a3 7e bf c3 69 7e bf c2 3d 23 bf a4 f5 47 bf
       -0.994685 -0.9938013 -0.6376611 -0.7810919
000180 64 3e 7d 3f 73 6a 3f 3f a2 ce 4a 3f 42 68 86 3f
       0.98923326 0.74771804 0.79221547 1.0500567
000190 e7 5b 7b 3f b3 bb 58 3f 6d f9 b9 3f 9c f2 a6 3f
       0.98187107 0.84661406 1.4529244 1.3042789
0001a0 f6 28 7d be c4 22 6a 3d 37 4b d7 3e e2 d8 a0 be
       -0.24722657 0.05716206 0.42049572 -0.31415468
0001b0 54 ae 85 be bf 1e 9c be fd 3c d3 3d 3b 57 68 bf
       -0.26109564 -0.30492207 0.10314367 -0.90758103
0001c0 a5 8d 79 3c 40 24 ea be cd 53 d5 be 85 82 37 bd
       0.015231525 -0.45730782 -0.41665497 -0.044802207
0001d0 7d 63 a0 ba 14 db b0 bd d3 76 be be c6 7f c0 3d
       -0.0012236681 -0.08635536 -0.3720003 0.09399371
0001e0 2b b4 59 bf e6 b9 7c bf db 97 80 bf 8c 7e 49 bf
       -0.8504054 -0.9872116 -1.0046343 -0.7870872
0001f0 56 50 70 bf 6e 39 7f bf 8f fe d9 bd ad 4f a5 bf
       -0.9387258 -0.99697006 -0.10644256 -1.291494
000200 f6 67 e5 3d dd 8a 23 bf b7 1c 2f bf 64 11 4a 3e
       0.112014696 -0.63883764 -0.6840319 0.19733196
000210 18 d2 3b 3e ba ee 13 3e 2b 05 80 bf 99 fa 19 bf
       0.18341863 0.14446536 -1.0001577 -0.60148007
000220 ca cc 5f 3d f7 5e ab 3c 21 6e 3a bd 56 88 9b 3d
       0.05463866 0.020919306 -0.045515183 0.075943634
000230 1c a7 14 bd 90 78 d7 bb 1d 94 36 bf 5e 1b d7 bd
       -0.03629218 -0.0065756515 -0.7131975 -0.10503267
000240 ec ab 09 3f 6a 02 72 3e f0 3d 63 3e 57 8f 13 3f
       0.53777957 0.23633733 0.22191596 0.57640594
000250 f1 c2 f9 3e bb bc 02 3f 0d cd c3 3d bb da bb 3e
       0.4878154 0.5106923 0.09560595 0.36690316
000260 01 7b 84 bf 6e 5d 80 bf 6c 3c 8c bf c2 74 7e bf
       -1.0350038 -1.0028512 -1.0955939 -0.9939691
000270 35 d1 50 bf c8 93 8e bf 52 f9 5c bf cb 45 f6 bf
       -0.81569225 -1.1138849 -0.8631793 -1.9240049
000280 ee 7b 35 be 15 3a 3b be c0 b8 83 bd f6 8f f4 bd
       -0.17723057 -0.18283875 -0.06431723 -0.11941521
000290 48 7b 39 3d 9c b2 24 be b2 cc 29 bf 1c be bb be
       0.045283586 -0.16083759 -0.66327965 -0.3666848
0002a0 01 5d 0d be 80 3f 82 bf fc d1 4e bf 86 16 ac be
       -0.1380501 -1.0175629 -0.8078916 -0.33610934
0002b0 50 1b 06 be 0b 93 15 be 57 79 1f bf 19 5e 46 bf
       -0.13096356 -0.14606874 -0.62294525 -0.7748733
0002c0 50 68 36 be c6 4f c7 be 1e 2e b4 be 18 d8 06 be
       -0.1781323 -0.3892805 -0.35191435 -0.1316837
0002d0 ba 3c 2b be 69 7e a3 be 4e bb b3 be 5a 79 0b bf
       -0.16722384 -0.3193238 -0.3510384 -0.5448204
0002e0 de 77 a2 bf fe b6 70 bf 9b fc 85 bf 07 07 a3 bf
       -1.269283 -0.94029224 -1.0467714 -1.273652
0002f0 57 75 b5 bf af 6f 98 bf 34 11 c9 3e 58 ab aa bf
       -1.4176434 -1.1909083 0.39270937 -1.333354
000300 4b 9a 04 bf 41 f3 32 bf 41 ce e7 be 4f 0d e2 be
       -0.5179793 -0.69902426 -0.45274547 -0.4415078
000310 9c cc 0d bf 09 ec f9 be e2 b6 0b bf 6f f3 52 be
       -0.55390334 -0.48812893 -0.5457593 -0.20600675
000320 e1 66 a8 bc f0 1e be be f7 f5 8f be 4b a6 95 bd
       -0.020556869 -0.37132978 -0.28117344 -0.073071085
000330 ce eb e0 bd e5 55 34 be 96 5b 1e bf ec 9b 0b 3e
       -0.10982476 -0.17610891 -0.618585 0.13633698
000340 a8 ab a9 be 82 b5 73 bd 89 24 20 3e 74 6d 87 be
       -0.33138776 -0.05949927 0.15638937 -0.26450694
000350 7b 7c c6 be 76 c9 64 be 03 74 7c 3f b6 2d 09 3e
       -0.38766846 -0.22342476 0.9861452 0.13396344
000360 f8 43 0c bf 09 92 0a bf 7c 03 26 be 39 08 2b bf
       -0.5479121 -0.5412908 -0.16212267 -0.6680942
000370 ca 6d 09 bf 13 da 49 bf 90 25 9b 3f 17 6e ba be
       -0.5368315 -0.7884838 1.2120838 -0.36412117
000380 22 90 e3 be 09 cd 2f bf 13 99 52 bf 0d 78 2b bf
       -0.44445902 -0.68672234 -0.8226482 -0.6698006
000390 82 70 e9 be 1e f8 26 bf be 71 3a bf 1d e2 24 bf
       -0.4559365 -0.65222347 -0.72829807 -0.6440752
0003a0 2c 0d 9a bf 40 71 59 bf 7c fe 4b bf 52 19 9e bf
       -1.203527 -0.8493843 -0.7968519 -1.2351477
0003b0 9c 9f 9d bf ad 80 8c bf 47 ec f5 be 66 56 a4 bf
       -1.2314334 -1.0976769 -0.48031828 -1.2838867
0003c0 aa 7b 8c 3e 6c d8 ff be 27 71 d9 be 26 c7 0b 3e
       0.27438098 -0.49969804 -0.4246914 0.13650188
0003d0 c0 39 9d 3e d3 fe 4b 3e 01 0d 13 3e 86 fd 4c 3d
       0.30708122 0.19921426 0.1436043 0.050046466
0003e0 d3 47 c5 3d b7 88 1b be a6 eb a3 bd a2 b8 82 3e
       0.0963284 -0.15188871 -0.08003931 0.2553149
0003f0 52 47 aa 3e 12 4d 44 3e 9a b8 de 3d 43 3a a3 3d
       0.33257538 0.19170025 0.10875054 0.07970097

lstm.weight_hh f4 [256, 64]
000000 64 14 ac 3c 0d e0 00 bf db 19 94 3e 79 d4 fe 3e
       0.021005817 -0.50341874 0.28925976 0.4977148
000010 48 3d b5 3e af 7d 99 be b7 19 d9 3d 97 8d a2 3f
       0.35398316 -0.299787 0.10600608 1.269946
000020 59 29 ec 3c 55 65 73 3e ea ed 52 3e 73 7c e2 be
       0.02882831 0.23769124 0.2059857 -0.44235572
000030 2d 55 cc 3e 82 2a b4 3e f4 f4 06 3e 2d 02 21 bf
       0.39908734 0.3518868 0.1317938 -0.62893945
000040 9f 99 33 3e 57 9a 1d 3f 59 53 b9 3e f1 72 30 bf
       0.1753907 0.6156363 0.36196402 -0.68925387
000050 8e 7e 9e 3e 44 b7 23 bf a9 8d 11 be 3d 97 37 be
       0.3095593 -0.63951516 -0.14214195 -0.17928787
000060 21 28 96 3e a0 25 c9 be 07 33 2f 3c 6b 49 21 3d
       0.2932749 -0.39286518 0.010693318 0.039376657
000070 fa 8f 17 3e 8d 80 a4 be f1 04 c7 be 63 81 02 3e
       0.14801016 -0.32129326 -0.38870957 0.1274467
000080 81 c2 22 3c 38 eb ef be 0f c0 11 bf c3 c3 d6 be
       0.009934069 -0.46859145 -0.56933683 -0.4194623
000090 99 88 0b 3f 5f 1f 62 be a8 a8 81 3c 8f e7 21 be
       0.54505306 -0.2208228 0.015827492 -0.15810989
0000a0 82 e4 47 be 54 51 f3 3d 19 82 ce 3c d8 1c 9e 3e
       -0.19520763 0.118807465 0.02520852 0.3088138
0000b0 34 61 3d 3e f5 6e b1 bd 5c 75 96 bd fc 40 b5 3c
       0.18494111 -0.086637415 -0.07346603 0.022125714
0000c0 a6 15 34 bd be 75 79 bf b0 5b 2a 3e 53 5a 6e bf
       -0.043965958 -0.97445285 0.16636539 -0.93106574
0000d0 cb c4 c2 be 8b f5 a1 be d5 d8 00 3f 83 ef 6b 3f
       -0.38040766 -0.31632647 0.5033086 0.9216234
0000e0 83 d3 5d 3e 87 09 4c be 43 a5 db 3e ea 01 08 bf
       0.21662717 -0.1992551 0.42899522 -0.5312792
0000f0 4b cf 1b bf 3a fa 4b be 82 46 5f be 80 25 46 be
       -0.6086318 -0.19919673 -0.2180424 -0.19350243
000100 e5 f0 6a 3e 70 bb a5 be 55 77 7d bf 5c 17 ae 3e
       0.22943456 -0.32369566 -0.9901021 0.34002197
000110 4f af 13 3f da e9 ec be bc 6c db 3e cc 80 53 3f
       0.57689375 -0.46272165 0.42856395 0.82618403
000120 15 14 78 3f 98 37 2f 3e a4 b8 99 3e 62 8b ba bf
       0.9690564 0.17111051 0.30023682 -1.4573786
000130 83 15 aa 3e d1 28 29 3f c6 8f 8c bf eb 9a bc bf
       0.33219537 0.66077906 -1.0981376 -1.4734777
000140 4a 5e 97 3f 8a 65 00 3f 9d 3b 1a 3e 5d 13 69 bf
       1.182565 0.50154936 0.15061803 -0.9104517
000150 b7 5d c8 3e 5f d8 74 bf 29 ca ee 3e d0 99 49 bf
       0.39134 -0.95642656 0.4663861 -0.78750324
000160 44 f1 2f 3f c9 a7 32 bf 77 b4 c8 3f 38 24 ef bd
       0.6872752 -0.6978727 1.5680073 -0.1167683
000170 1d fd 93 3f b9 12 4c bf 5b 17 87 bf 38 19 40 3e
       1.1561619 -0.7971607 -1.0554003 0.1875962
000180 9e fe 04 bf 17 92 89 bf 78 0c 55 bf c8 2f 04 bf
       -0.51951015 -1.0747708 -0.8322215 -0.5163541
000190 b2 90 1a 3f 20 28 9e 3d cf 32 02 be 9a 38 8c 3e
       0.6037704 0.07722497 -0.12714694 0.27386934
0001a0 97 6d 9e 3e 1a 8d 68 3d 8a 6c 9e 3f 79 00 0a 3f
       0.30942985 0.05677519 1.2376873 0.5390697
0001b0 e9 a5 c6 3f db cf f1 be b6 51 87 3f 5e e3 2b bf
       1.5519382 -0.47228894 1.0571811 -0.6714381
0001c0 bb 80 da be 72 a5 cb bf f4 b2 72 3e 27 6e af be
       -0.4267634 -1.5909865 0.23701078 -0.34263727
0001d0 8d a0 a4 be 68 ad d6 be 8a dd 30 3f fb e4 dd 3e
       -0.3215374 -0.41929173 0.6908804 0.4333876
0001e0 3f f7 f6 3e 99 a8 7c bf 46 ac bc 3e 5a ba bb bf
       0.4823551 -0.9869476 0.36850184 -1.4666245
0001f0 f3 99 44 bf 83 22 d2 3e e2 95 2e bf 5a 5f 40 bf
       -0.7679741 0.41041955 -0.68197453 -0.75145495
000200 08 a5 b4 3e 74 36 2e bf 5c 67 f0 3e 0d 46 29 3f
       0.3528216 -0.6805184 0.46953857 0.66122514
000210 51 4e 61 3f 8c 1d 97 bd ff 92 3d 3f e6 7f e0 3f
       0.88010126 -0.073786825 0.74052423 1.7539032
000220 1c 97 65 3f 98 e7 80 3f e3 53 34 3f df fc 74 bf
       0.896837 1.0070677 0.704405 -0.9569835
000230 22 0a 01 3f 81 02 b1 3e f4 6a 33 bd a9 18 b5 bf
       0.50406086 0.34572223 -0.04380317 -1.4148151
000240 6a 4e 1c 3f bf e6 18 3f 75 4c 82 3f 11 78 43 bf
       0.6105715 0.5972709 1.0179583 -0.7635508
000250 35 7a 8f 3f 69 d4 4d bf 27 e8 fc 3e 8b 28 1d bf
       1.120917 -0.8040224 0.49395868 -0.6138999
000260 4a 2e 6c 3f 47 a6 54 be 5c 39 63 3f 19 33 ae 3e
       0.9225813 -0.20766555 0.887594 0.3402336
000270 24 62 99 3e 0a e7 7f bf 55 57 4b bf c4 bb 57 3e
       0.29957688 -0.9996191 -0.79430133 0.2106772
000280 de 15 0e 3f bb a3 37 bf ef 25 34 bf 4c 23 1a bf
       0.55502117 -0.7173421 -0.7037038 -0.6021011
000290 80 a8 35 3f 26 07 4a bf 9d 70 85 3e 62 3e 83 bf
       0.70960236 -0.7891716 0.2606248 -1.0253413
0002a0 da bf af be 2c 92 5f 3f 6e 0c c6 3e 12 f9 c0 3e
       -0.3432606 0.87332416 0.38681358 0.37690026
0002b0 d3 e4 1f 3f d2 9c 2c 3e 75 63 c9 3d 30 ee 24 3f
       0.62458533 0.16856697 0.09833423 0.64425945
0002c0 c0 5f b7 be f9 2a 42 bf 20 9a be 3d 75 e3 5f bf
       -0.3581524 -0.7584682 0.09306741 -0.87456447
0002d0 85 9f 48 be 19 54 e8 bb 44 78 10 3f 3b a2 b3 3f
       -0.19592102 -0.0070901033 0.5643351 1.4033884
0002e0 e7 1a ae 3d c0 7e 25 bb 07 e5 b7 3e b3 45 46 bf
       0.08501225 -0.002525255 0.35916921 -0.774501
0002f0 40 60 86 bf c9 9b eb 3e 82 ee 31 be 06 12 ac be
       -1.0498123 0.46017292 -0.1737614 -0.336075
000300 2c 7b 40 bc 95 67 80 be 3a e4 d2 3e c2 6f fa be
       -0.011748116 -0.25079027 0.41189748 -0.4891339
000310 6c cc 11 3f 30 8e d5 3d b5 03 80 be c2 8a 83 3f
       0.5695255 0.10427511 -0.25002828 1.027672
000320 e5 e9 56 3f aa cf cc be 6f 4d 7e 3f a5 e4 8c bf
       0.83950645 -0.40002185 0.99336904 -1.1007277
000330 15 49 4c 3f 4d 5f 65 3f a7 0b ad 3e 27 e6 b3 bf
       0.79799014 0.8959854 0.33797953 -1.4054612
000340 4f 38 ed 3e 25 e8 bd 3e 49 38 e2 3d 53 6d 9e bf
       0.46332023 0.37091175 0.11045892 -1.2377113
000350 ed 48 42 bd 1c 8b 54 3e 5a 0d 2f bf 07 55 72 bf
       -0.04743283 0.20756191 -0.6837975 -0.9466099
000360 d5 1c 74 be 20 3e c9 be 64 4c 41 3f f9 56 0f be
       -0.23839124 -0.3930521 0.7550719 -0.13998021
000370 e6 25 47 3f e8 92 60 bf f7 8b 2c 3d 34 54 2e 3c
       0.77792203 -0.8772416 0.04212567 0.010640193
000380 8a 58 d9 3e 47 1f fe 3c 29 6a e1 be a5 74 89 be
       0.42450362 0.031020774 -0.44026306 -0.26846805
000390 08 5f 17 3f 91 d6 5d bc db 60 e3 3e 6c 3d 69 3e
       0.5912938 -0.013539926 0.44409832 0.22777337
0003a0 6e 14 45 3e 1e 81 1f bf 22 41 9d bd 1a 70 4a 3f
       0.19246075 -0.6230639 -0.07678439 0.79077303
0003b0 39 2c da be 40 44 3b 3e 80 41 da bd 97 33 21 3e
       -0.42611864 0.18287754 -0.106570244 0.15742336
0003c0 e3 a6 07 3f 05 42 85 3d 59 ef 2a 3f 00 af a3 3d
       0.52989024 0.06506733 0.66771466 0.07992363
0003d0 17 b5 8b bd ce 46 76 bf b8 67 25 be 9b c2 f0 3e
       -0.068216495 -0.9620179 -0.16152847 0.47023472
0003e0 bb 27 81 be 44 90 03 be 5f 20 90 3e 1b fd b1 bd
       -0.25225624 -0.12848002 0.28149697 -0.08690854
0003f0 21 51 63 bd 3e a4 8b bf a2 80 ba bf 74 a1 a3 bf
       -0.055497292 -1.0909498 -1.4570506 -1.2783647

lstm.bias_ih f4 [256]
000000 c9 75 f7 be 0f ad 3c be 74 6b 0b bf 00 74 6b bf
       -0.4833205 -0.18425392 -0.54460835 -0.91973877
000010 4b 80 fb be 50 c4 a7 be 33 b9 65 be 3b d0 d5 be
       -0.49121317 -0.32766962 -0.22433929 -0.4176043
000020 f3 4f 30 bf 66 ad 18 bf e8 32 2e bf cc 09 4b be
       -0.6887199 -0.59639585 -0.68046427 -0.19827956
000030 c4 14 31 3f 27 8a 0c bf e9 66 8e be 89 4e f2 be
       0.6917231 -0.54898304 -0.2781289 -0.47325543
000040 39 a2 27 bf 5b 0a 12 bf 42 02 83 be 4d 5f aa be
       -0.6548191 -0.5704705 -0.2558766 -0.33275834
000050 f4 17 3d bf ce 69 bd be cd e3 08 bf 7b 72 2e bf
       -0.73864675 -0.36994785 -0.53472596 -0.68143433
000060 34 a1 4b bf 8e 72 2a bf 38 1c d2 3e 39 1e 0e bf
       -0.7954285 -0.66581047 0.41037154 -0.55514866
000070 44 9a be be 65 29 13 bf 52 29 02 bf 96 33 45 be
       -0.3722707 -0.5748504 -0.508443 -0.1925796
000080 fe 0a 1b bf 50 30 5c bf 68 24 f1 be 11 31 25 bf
       -0.6056365 -0.8601122 -0.47098088 -0.64527994
000090 65 9d 13 3d 43 9b b3 bd b7 6e 58 bf 43 ec b0 3e
       0.036038775 -0.08769848 -0.8454394 0.34555253
0000a0 c1 2e a3 be 40 ee dc bd 7e 78 12 bf a4 b9 62 3f
       -0.31871608 -0.1078763 -0.57215106 0.88564515
0000b0 63 6c fc be 51 54 c0 be a6 04 c7 be cf 64 ad 3e
       -0.49301443 -0.37564328 -0.38870734 0.33865973
0000c0 43 c9 49 bf 1e c4 24 bf 77 eb 22 3f ac 89 c7 be
       -0.78822726 -0.6436175 0.6364054 -0.38972223
0000d0 0e 32 3b bf 79 e0 ae be e6 76 4a bf 58 e6 63 bf
       -0.7312325 -0.34155634 -0.79087675 -0.8902335
0000e0 ff 5f c5 be 6b 41 3c bf 83 2d 0c bf fc dd 28 bf
       -0.38549802 -0.7353732 -0.54756945 -0.6596372
0000f0 97 89 26 be e2 8a 37 bd 51 8c 23 be a1 20 d7 be
       -0.16263424 -0.044810183 -0.15971495 -0.4201708
000100 b0 7f 95 bf 5e 02 4a 3e ab 43 86 bf ce db 84 bf
       -1.1679592 0.19727466 -1.0489401 -1.0379579
000110 83 3c 68 3e 4d 4e 8d bf e9 ef bb bf 38 ea 83 3f
       0.22679333 -1.103952 -1.468259 1.0305853
000120 9a 0c db 3e 7c 7e a6 bf 4b 8a 46 3e 50 06 59 3f
       0.42783052 -1.300735 0.19388692 0.8477526
000130 81 a0 f2 3e 20 b4 09 c0 84 94 14 bf b4 d7 81 3f
       0.4738808 -2.151619 -0.58039117 1.0143952
000140 72 93 97 be 2c 1d d2 bc fd 26 a7 bf cd 86 be 3e
       -0.2960468 -0.025648676 -1.3058773 0.3721222
000150 77 77 c2 bf 2d a4 2a 3e 00 ab d6 3c 49 3d d0 3e
       -1.5192708 0.1666419 0.026204586 0.40671757
000160 55 a8 a5 be 5a e1 68 be c4 a2 1d 3f 39 4b 07 bd
       -0.3235499 -0.22742215 0.61576486 -0.033030722
000170 f1 f7 86 3f 60 03 86 bc 21 ad 6f be 70 98 9c bf
       1.0544416 -0.016359031 -0.23405887 -1.223402
000180 49 f7 c1 bf 8e 84 9c 3d 48 42 ea be f7 84 69 bd
       -1.515359 0.0764247 -0.45753694 -0.05701157
000190 1d e4 ce be 64 0d cf bf 65 75 09 bf 98 58 12 bf
       -0.40408412 -1.6175961 -0.53694755 -0.57166433
0001a0 52 26 02 bf da 86 e5 bf 4c 32 f7 3d 2d 06 13 3f
       -0.5083972 -1.7931778 0.1207014 0.574313
0001b0 38 ce dd 3e e3 ed a9 bf e8 db e7 be 6b 1a 1d bf
       0.43321395 -1.3275722 -0.45284963 -0.61368436
0001c0 ce 58 d1 be d1 7e 73 be 7e e8 88 bd 28 36 6c bf
       -0.40888065 -0.23778845 -0.06684969 -0.92270136
0001d0 55 51 5f bf af b0 ec 3d 69 1e c9 bf 34 b7 67 bf
       -0.8723348 0.11557137 -1.5712405 -0.9051392
0001e0 70 8c 50 bf 68 8b 0f bf 59 41 a0 3d c9 42 82 3e
       -0.8146429 -0.5607209 0.07824964 0.25441578
0001f0 34 05 24 3f 14 0c 27 3e 2f e4 c6 3e 23 e3 f1 3d
       0.6407044 0.16313201 0.38845965 0.11810901
000200 51 ee 5c 3e 05 ee bb 3d 12 db 51 3d a5 f7 33 3e
       0.21575285 0.09176258 0.051234312 0.17574938
000210 43 09 a0 bd 27 2a 08 3d 16 c1 39 3e 41 48 8d be
       -0.078142665 0.033243325 0.18140063 -0.27594188
000220 3d d8 53 be b2 02 90 3e 32 c1 17 be f5 40 a4 3f
       -0.20687957 0.28127056 -0.14819792 1.2832323
000230 b9 d2 44 bf e2 96 49 be 1b 80 49 be 18 28 bf 3e
       -0.7688404 -0.19686463 -0.19677775 0.37335277
000240 2e 3d f7 bd 99 2b e9 bd 12 7e 46 3e e2 ad 4c 3f
       -0.12072216 -0.11385269 0.1938403 0.79952824
000250 69 4a 62 3e 59 ed 98 bc 2b 13 1c 3e 6f 25 0d 3f
       0.22098698 -0.018667864 0.15241687 0.55135244
000260 0a dc 2e be 4c 03 61 3c 2c 17 0f bf bb 6b a9 be
       -0.17076126 0.013733696 -0.5589473 -0.33090004
000270 5c a6 66 be 52 bf a1 3e 5c 5e 9c 3d 01 d7 a2 3e
       -0.22524399 0.31591278 0.07635185 0.3180466
000280 3e f9 75 be 0d 09 b6 bc ce 0d cd 3e 41 d5 27 bd
       -0.2402086 -0.022221113 0.40049595 -0.04097486
000290 37 57 90 bf 8e 23 c2 be dd 87 99 be 22 54 dd be
       -1.1276616 -0.3791775 -0.29986468 -0.4322825
0002a0 ad 66 d6 be 9c a3 16 3e d3 9d 00 bd 28 a9 2e bf
       -0.4187521 0.1471085 -0.031400513 -0.6822686
0002b0 dd b4 0c 3d 76 09 a7 be 35 b2 a8 3d 7a 10 b1 3e
       0.034352172 -0.32624406 0.08237115 0.34582883
0002c0 3a dc a9 3d 54 60 71 3e 8e a4 78 bf 02 f3 00 3d
       0.08293958 0.23571903 -0.9712609 0.03148175
0002d0 ff 8e f9 3e e5 c9 8a 3f 4c de 81 be 6e 5f 87 be
       0.4874191 1.0842863 -0.25364912 -0.26439995
0002e0 b8 48 9b bc 20 65 0c bd 5d 3f 5a 3d 34 89 56 bc
       -0.018955573 -0.034276128 0.053283084 -0.013094235
0002f0 f1 89 a7 bd 2f c3 82 3f 0f e2 6f 3f 5f 1a 62 3f
       -0.08180607 1.0215815 0.93704313 0.8832149
000300 ce f8 92 be 6a 30 13 bf 10 1a c9 be 0b 85 5f bf
       -0.28705448 -0.5749575 -0.39277697 -0.8731238
000310 48 30 3b bf af d5 f0 be c8 5d e3 be 87 27 3b be
       -0.73120546 -0.47038028 -0.44407487 -0.18276797
000320 56 e0 4b bf 1d 42 cd be 03 62 3f bf 24 83 b7 3d
       -0.79639184 -0.40089503 -0.7475893 0.0896056
000330 a4 83 ef be a3 87 13 bf 58 7c 04 bf 7b dd 1c be
       -0.4678012 -0.5762884 -0.51752234 -0.15318863
000340 8c 97 3b bf 6a 94 5e be 7a 53 0f bf ec e1 0f bf
       -0.7327812 -0.21736303 -0.5598675 -0.56204104
000350 9d 80 13 bf 64 55 ff be aa 64 49 bf 87 1b 4e bf
       -0.57618123 -0.49869835 -0.78669226 -0.80510753
000360 f0 78 6b bf ed dc 02 bf 10 9e 78 bf b3 76 7f be
       -0.9198141 -0.51118356 -0.97116184 -0.24947624
000370 d2 37 84 bc 45 c7 4e bf 5b 76 09 bf b8 74 20 bf
       -0.016139898 -0.8077281 -0.5369622 -0.626781
000380 1b 4d 27 bf fa 56 38 bf 20 68 4b bf c5 83 76 bf
       -0.6535203 -0.72007716 -0.7945576 -0.96294814
000390 79 e0 8d be bc 29 e2 be 67 8a 29 bf 63 0a 26 bb
       -0.27710322 -0.44172466 -0.6622681 -0.002533578
0003a0 f1 2f 46 be 9a ed fd bd e6 40 b8 be 70 43 de be
       -0.19354226 -0.123988345 -0.35987014 -0.43410826
0003b0 8f fa fb be df 9f 13 bf ec 74 27 bf d6 01 93 3d
       -0.492146 -0.5766582 -0.65412784 0.071780846
0003c0 80 75 20 bf aa 77 1f be 7d e2 f3 be 57 bd a2 be
       -0.6267929 -0.15572992 -0.47633734 -0.3178508
0003d0 62 cc 6e bf 2e 35 de be de af 89 bf 13 3a 5a bf
       -0.93280613 -0.43399948 -1.0756795 -0.85244864
0003e0 c7 79 da be 29 44 08 bf 28 74 70 be df 50 9c be
       -0.42671034 -0.53229004 -0.2348181 -0.3053045
0003f0 2c 2d 20 bf 64 a5 19 be d3 d9 f3 be 6b 56 01 bf
       -0.62568927 -0.15004498 -0.47627124 -0.5052249

lstm.bias_hh f4 [256]
000000 a4 f7 f2 be 55 e1 ae be 0f eb 3d bf 13 2e 33 bf
       -0.4745456 -0.3415629 -0.74186796 -0.6999218
000010 61 a8 f5 be e1 52 d6 be c7 ff ad be f6 f8 a7 be
       -0.47980025 -0.41860107 -0.33984205 -0.3280713
000020 5f eb 57 bf c9 b7 df be 00 c3 f6 be 05 f1 36 be
       -0.8434352 -0.43694904 -0.48195648 -0.17865379
000030 06 f4 3b 3f a3 25 17 bf 38 eb 89 be 80 17 c7 be
       0.73419225 -0.59041804 -0.2693727 -0.38885117
000040 63 9c 4b bf 93 4d da be 6e 64 5e be 3d 54 a7 be
       -0.795355 -0.4263731 -0.21717998 -0.32681456
000050 48 70 0d bf 8d e2 dd be 93 42 3a bf c1 25 2f bf
       -0.5524945 -0.43336907 -0.72757834 -0.6841698
000060 5e 94 71 bf fb 9c 0b bf 11 44 c4 3e e9 60 b4 be
       -0.94367015 -0.5453641 0.3833318 -0.35230187
000070 64 c0 76 be b5 f6 48 bf 5e ee 1e bf 87 f5 74 be
       -0.24096829 -0.78501445 -0.6208247 -0.23921786
000080 7e 6b 1b bf 44 5f 70 bf 07 a6 06 bf 9f a7 20 bf
       -0.60710895 -0.93895364 -0.5259709 -0.6275577
000090 bc e0 4c 3d 5c 87 d3 bd cc 94 48 bf 64 c7 03 3f
       0.05001901 -0.10328552 -0.78352046 0.5147612
0000a0 10 6d ac be 41 b9 2e 3d dd 9e 39 bf 4a a9 89 3f
       -0.33676958 0.04265714 -0.7250803 1.0754788
0000b0 33 5d 10 bf db 71 96 be 59 6b 06 bf 23 8a 82 3e
       -0.5639221 -0.2938374 -0.5250755 0.25496015
0000c0 46 c5 55 bf 62 8a 5a bf ba 4a 2d 3f 55 e3 d2 be
       -0.8350414 -0.85367405 0.6769215 -0.41189066
0000d0 a0 d7 50 bf e0 35 d7 be 57 b6 27 bf 31 1f 69 bf
       -0.8157902 -0.4203329 -0.65512604 -0.9106322
0000e0 e1 59 00 bf 4e 15 2f bf 45 06 f4 be cf f8 34 bf
       -0.50137144 -0.68391883 -0.47661033 -0.7069215
0000f0 ab 54 54 be 23 92 21 be f5 45 8c be a7 d4 95 be
       -0.20735423 -0.15778403 -0.27397123 -0.29263803
000100 ab 00 a2 bf fb 55 7c 3e ce c0 57 bf fc 02 76 bf
       -1.2656454 0.24642174 -0.8427857 -0.96098304
000110 e1 9a 82 3e 7e df 89 bf 65 b8 b6 bf 9f 15 86 3f
       0.25508788 -1.0771329 -1.4275023 1.0475348
000120 0a c3 d8 3e e6 22 92 bf 81 10 99 3e 28 82 88 3f
       0.42336303 -1.14169 0.29895404 1.066472
000130 0b 1a e6 3e e4 c1 ff bf 01 7f 11 bf cd 46 82 3f
       0.44941744 -1.9981046 -0.5683442 1.0177857
000140 cf 8a 6a be 84 3b 6c 3d 0f 57 94 bf 81 45 c7 3e
       -0.22904514 0.057673946 -1.1589068 0.38920215
000150 27 93 d0 bf 12 dd 51 3e 19 7b 32 bd eb 0d d2 3e
       -1.6294907 0.20494488 -0.043574426 0.41026244
000160 0a 01 a7 be da 4e 72 be 7a 7f 0d 3f e2 90 09 bd
       -0.3261798 -0.23662892 0.5527264 -0.033585437
000170 d2 29 88 3f ba 82 ff 3d 9b 26 87 be 01 07 b4 bf
       1.0637763 0.12476106 -0.2639664 -1.4064637
000180 74 5e c9 bf ce ed 8e bd 6c 0a f6 be 39 e5 e7 3d
       -1.573195 -0.069789514 -0.48054826 0.113230176
000190 9f 2a db be d3 bb b7 bf b4 38 eb be 3d aa 2a bf
       -0.42805955 -1.4354194 -0.459417 -0.66666013
0001a0 09 24 da be 8b 8d e1 bf 42 74 74 3e a6 8a 0e 3f
       -0.42605618 -1.762132 0.23872474 0.5568031
0001b0 cb fa c0 3e 14 90 c4 bf 47 16 c1 be 55 25 49 bf
       0.3769134 -1.5356469 -0.3771231 -0.7857259
0001c0 5d 3f a3 be 5a 7e a3 bd 39 c6 a2 bd 82 a7 43 bf
       -0.3188428 -0.07983084 -0.07947964 -0.7642747
0001d0 38 a0 3a bf 3a a9 1f 3e 6e 3d d7 bf 08 b6 50 bf
       -0.72900724 0.15591899 -1.6815622 -0.8152776
0001e0 93 ba 54 bf a4 6e b7 be 1b 46 a2 3d 50 05 53 3e
       -0.8309719 -0.358266 0.07923528 0.20607495
0001f0 ea 05 13 3f d5 9d 17 3e 3c 16 0e 3f 74 58 78 3e
       0.574309 0.14806302 0.55502677 0.24252492
000200 03 a6 ed 3d a1 af f7 3c af 8f 3e bd 5c 1d 8b 3e
       0.1160393 0.030235114 -0.046523746 0.27170837
000210 fe a1 22 bd 57 13 0d 3e 83 1f ab 3e b8 b9 6e be
       -0.03970527 0.13776909 0.3342248 -0.23313034
000220 63 73 40 bd 1a 95 3a 3e 8a 68 d8 bd ae d3 9c 3f
       -0.04698504 0.1822094 -0.10566814 1.22521
000230 09 25 66 bf 38 ba d0 bd bc e6 4d bd fd 6c cb 3e
       -0.8990026 -0.101917684 -0.050268874 0.3973159
000240 ee 8b 98 bd 38 aa 03 bd e5 c3 76 3e 2d 81 74 3f
       -0.074485645 -0.032144755 0.24098165 0.95509607
000250 81 8a 4f 3e 66 be e5 bd a8 a2 04 3e a5 4b 42 3f
       0.20267679 -0.11217956 0.12952673 0.75896674
000260 9a 91 27 be 77 9b 17 3e 4b 81 fa be ec f9 c0 be
       -0.16364136 0.14805399 -0.48926768 -0.37690675
000270 19 c7 98 be 39 ca a7 3e 49 fe 96 3e af 56 c4 3e
       -0.298394 0.3277147 0.2949088 0.38347384
000280 96 80 77 be 91 8c d0 3d 73 24 fa 3e c8 59 c6 bd
       -0.24170145 0.10183061 0.48855934 -0.09685093
000290 6f 2a 89 bf 78 31 ed be ed 34 38 be e9 6d 08 bf
       -1.0716075 -0.46326804 -0.1798894 -0.5329271
0002a0 43 c3 d8 be e3 b3 9c 3e 70 5c 11 3e 69 99 42 bf
       -0.42336473 0.30605993 0.14195418 -0.76015335
0002b0 38 dc 12 3e 25 e0 94 be f2 5b b1 3c ef 61 15 3f
       0.1434182 -0.2907726 0.021650288 0.5835256
0002c0 b6 7d 82 3e 83 72 d5 3e 25 1f 87 bf 80 b5 ea 3c
       0.25486535 0.41688928 -1.055638 0.028651
0002d0 7e db 9e 3e cc 5c 76 3f 54 e9 ef bd 55 a0 60 be
       0.31026834 0.96235347 -0.11714426 -0.21936162
0002e0 24 4c 20 be 63 9c 4d 3b 0e 56 8f 3d 76 f1 b5 3d
       -0.15654045 0.0031373731 0.069988355 0.08883946
0002f0 46 92 b1 bd cf 9a 7e 3f 90 f6 74 3f 23 79 64 3f
       -0.086704776 0.9945497 0.95688725 0.8924734
000300 7c 37 b3 be 0d ee f0 be 9b 1b 8b be 42 39 38 bf
       -0.3500327 -0.47056618 -0.271695 -0.7196237
000310 ca 2e 6a bf 5c c5 0a bf 7c 5d ca be d2 7c eb bd
       -0.91477644 -0.54207397 -0.39524448 -0.11498417
000320 b1 d3 31 bf f1 d6 ae be 98 ed 45 bf c9 ec 29 3e
       -0.6946364 -0.34148362 -0.77315664 0.16594233
000330 11 55 f7 be 53 45 27 bf 61 a9 07 bf 20 cf 1f be
       -0.48307088 -0.65340155 -0.52992827 -0.15606356
000340 e8 ae 28 bf 37 2b dd be 52 af 10 bf ee e3 bf be
       -0.65891886 -0.43197033 -0.5651752 -0.37478584
000350 c0 1c 0a bf be 10 ea be fc 14 3b bf 32 e8 4f bf
       -0.5395012 -0.45715898 -0.73078895 -0.81213677
000360 e1 22 88 bf a6 da 11 bf 26 ec 56 bf e6 d3 b9 bd
       -1.0635644 -0.56974256 -0.83954084 -0.090736195
000370 57 74 cf bd fd e2 35 bf 7c cf 16 bf 71 fc 05 bf
       -0.10129612 -0.7104948 -0.58910346 -0.5233832
000380 3e 0c 08 bf fa be 59 bf f2 8c 2a bf 3b bf 92 bf
       -0.5314368 -0.8505703 -0.66621315 -1.1464609
000390 a3 d7 9d be 10 06 c6 be 77 a1 4f bf 46 cc 18 be
       -0.3082858 -0.386765 -0.8110575 -0.14921674
0003a0 f8 c8 cb be e7 ad 0e be 43 7a d9 be 2a fe dd be
       -0.39801764 -0.13933526 -0.4247609 -0.43357974
0003b0 6b ae 17 bf 0f 83 18 bf ba 3a 15 bf 03 b9 f8 3d
       -0.59250516 -0.5957498 -0.58292735 0.12144663
0003c0 9b c2 18 bf f4 2b 75 be ef 30 0e bf 85 26 e3 be
       -0.59671944 -0.23942548 -0.55543417 -0.44365326
0003d0 67 45 5c bf 5f fa b7 be 7f 32 88 bf 69 12 76 bf
       -0.860434 -0.35933205 -1.064041 -0.9612184
0003e0 e1 34 dc be 0e 69 17 bf 33 6e 57 be 11 56 89 be
       -0.43009093 -0.59144676 -0.21038131 -0.26823476
0003f0 7c 41 2b bf c5 24 24 be 27 69 d7 be 93 a0 f6 be
       -0.66896796 -0.16029651 -0.42072412 -0.48169383

Fc_mid.weight f4 [64, 64]
000000 aa f0 25 3d e0 32 74 3e 2a b3 0c 3e 5a e4 bb bc
       0.04051272 0.23847532 0.1374022 -0.022936035
000010 ea 00 70 3d 82 98 70 bc 00 1a bc bd 86 0e 9c bd
       0.05859462 -0.014684798 -0.091846466 -0.076199576
000020 03 5a 80 bd 13 57 a5 bd c7 a5 5a 3e 54 8d ca be
       -0.062671684 -0.08073249 0.21352302 -0.3956095
000030 ad bc 5b 3e d5 c0 fb 3d 8e 78 ec 3c 27 41 6b be
       0.21458693 0.12292639 0.028866079 -0.22974072
000040 b8 c9 90 3e fc 7b 1f bd a8 da 92 b9 87 5b 9d bd
       0.282789 -0.0389366 -0.00028010202 -0.07683473
000050 3c a6 0d 3d 25 87 a0 3c b5 e5 1e bc c4 a3 5d 3d
       0.03458236 0.019595692 -0.009698321 0.054111257
000060 c7 e1 8c be 69 c2 75 3e 22 40 4f 3e a1 42 14 3d
       -0.27516004 0.23999943 0.20239308 0.036196355
000070 28 1f 60 3e c7 fb 1e bd 99 94 33 be 9e 76 4e bd
       0.21886885 -0.038814332 -0.17537154 -0.05040609
000080 9a a8 e0 3d 7e 22 c6 3e 2e fa 53 3b b0 71 b9 3d
       0.10969658 0.3869819 0.0032345164 0.09054887
000090 b8 25 1d 3d 19 51 46 3e ca b8 98 3e c1 3b 97 3c
       0.03836605 0.19366874 0.29828483 0.01846111
0000a0 00 a9 28 be 04 37 1d 3c b5 b1 86 be 62 a5 93 3e
       -0.16470718 0.009595636 -0.26307455 0.28837115
0000b0 dc 75 df bd 44 bf 06 bd 04 e7 57 be db 44 88 bc
       -0.10911152 -0.03289725 -0.21084219 -0.016634395
0000c0 80 48 98 3e 17 8e 28 be 65 dc 05 be 92 78 dd bd
       0.29742813 -0.16460453 -0.13072355 -0.108140126
0000d0 cf 18 19 3e c0 4f ba bc 1a e7 12 bf ac 40 09 bd
       0.1495087 -0.022743106 -0.57383883 -0.03350894
0000e0 73 da 4f be 35 af 89 3e 53 af 2e be 17 3d 7a 3e
       -0.20298176 0.26891485 -0.17059068 0.24437366
0000f0 1e 23 e3 3d 30 34 a8 bd 09 d9 54 be 65 95 90 3d
       0.110906824 -0.08213079 -0.20785917 0.07059745
000100 57 9a 47 3e af 95 14 bd b6 cc 0d 3e 48 ae 83 be
       0.1949247 -0.036275562 0.13847622 -0.25718904
000110 97 1d 2f 3e 48 b5 02 3e 32 40 38 3e 50 b1 c0 bd
       0.17101131 0.12764466 0.17993239 -0.0940882
000120 3b b4 c9 3d e0 5c 1d bc a4 22 80 3d 02 30 ac be
       0.09848829 -0.009604663 0.06256607 -0.33630377
000130 a3 09 a3 3e 79 3c 86 3e 35 29 6b 3d 63 a0 4d be
       0.3184329 0.26218012 0.057412345 -0.20080714
000140 d5 d4 1e bd f7 6a 8c be 41 52 9d bb ad a0 b7 bd
       -0.03877719 -0.27425358 -0.004801065 -0.08966193
000150 12 92 35 bd a7 7e e8 3d a0 6b 80 bd 6c dc 1e be
       -0.044328757 0.11352282 -0.06270528 -0.15513772
000160 5c d6 e7 3d 2b e9 41 3e ea a4 a3 3d 94 6b 12 3d
       0.11320183 0.18936603 0.07990439 0.035747126
000170 9f 30 90 bb b2 14 92 3b 1e 92 66 bd 0c 63 1c 3e
       -0.0044003273 0.0044580335 -0.056291692 0.15272158
000180 ad d2 e2 3d ba 48 af 3c 09 3e d8 bd 61 cf 81 3d
       0.110753395 0.021396983 -0.10558707 0.063383825
000190 b7 41 1f 3e 5e b4 55 3e 7c d6 c2 bc 17 85 a8 3d
       0.15552412 0.20869586 -0.023783915 0.0822851
0001a0 66 d6 ff 3d ee 50 f8 bc 2b 40 44 bd 32 21 89 3e
       0.12492065 -0.030312028 -0.047912758 0.2678314
0001b0 e5 7d 80 bc 1f 00 d0 3d cf 7a 47 bd 7d 6b 3e 3d
       -0.015685031 0.10156273 -0.048701104 0.046489228
0001c0 ec cf 15 3d 94 c2 1b be e1 98 80 3e 7a ad 08 3e
       0.036575243 -0.15210944 0.25116637 0.13347426
0001d0 be bd 38 bd a2 1a 61 be 4c f3 43 bc 2e 4b 0d 3e
       -0.045102827 -0.21982816 -0.011959862 0.1379821
0001e0 47 11 8e bd 4b f1 ee bd 27 b8 03 be df 9d be 3d
       -0.06936889 -0.11667117 -0.12863217 0.09307455
0001f0 e4 a5 ad bc 48 35 57 be b5 45 ec bd 5b 00 00 be
       -0.021197267 -0.21016419 -0.11536733 -0.12500136
000200 cf be 24 3a 09 f8 b5 bd bc 7e 0d 3e 05 ce a1 be
       0.0006284536 -0.088851996 0.13817877 -0.31602493
000210 cc 9c 27 3f 2f 48 85 be 57 3a d7 bd 78 5b 33 3e
       0.6547363 -0.26031634 -0.10509174 0.17515361
000220 23 d0 3b 3e 13 b5 aa be 40 6b 80 3d 63 05 93 be
       0.18341117 -0.33341274 0.06270456 -0.28715047
000230 76 dd 85 3d 02 a7 2f be d0 b3 d7 3c 0d 25 b1 be
       0.06536381 -0.17153552 0.026330858 -0.3459858
000240 75 bc 0e 3f 83 60 e5 3d ef 39 aa bd e0 dc 5d be
       0.5575631 0.11200049 -0.08311831 -0.21666288
000250 b0 1a be be a9 c6 0f be 16 b3 eb be 02 a6 d8 bd
       -0.37129736 -0.14040627 -0.4603507 -0.105785385
000260 c4 58 37 be f9 58 e8 3c 1b 96 a2 3e b0 f6 04 3e
       -0.17904955 0.028362738 0.31755146 0.12984729
000270 3a 84 3c 3e 39 49 3a be dd a9 5f bc 9d c5 40 be
       0.18409815 -0.18191995 -0.013651338 -0.18825383
000280 51 6b 9f bd dd d3 13 be 3d 14 1f 3e 1b 5a 90 bc
       -0.07784141 -0.14436288 0.15535064 -0.01762109
000290 59 85 ec 3e 0e cd 4d 3e 94 a1 ee 3e 91 58 50 3e
       0.46195486 0.20097753 0.4660765 0.20346285
0002a0 a7 76 35 be 53 b0 01 bf fb e3 37 3e 67 56 31 3e
       -0.17721044 -0.50659674 0.17958061 0.17318116
0002b0 b5 b7 31 3d 35 84 bd 3d e5 50 92 3d 89 02 d8 bd
       0.043388087 0.09253732 0.07144336 -0.105473585
0002c0 5d b5 51 3e 30 d7 21 3e 19 3d 80 3d 87 a2 35 3e
       0.20479341 0.15804744 0.062616535 0.1773778
0002d0 4d 12 ab bb 37 7c a2 3d 33 3d 98 be 70 09 df bc
       -0.0052206875 0.07933848 -0.2973419 -0.02722618
0002e0 78 a9 81 3d 22 49 3c be b8 d0 77 3d c2 f0 10 be
       0.06331152 -0.18387273 0.060501784 -0.14154342
0002f0 ea 2e 32 3e 6e 0f 61 be 44 a5 23 bf 59 8e e0 be
       0.17400709 -0.21978542 -0.6392405 -0.43858603
000300 ae e9 da bd 94 2a 94 3c 4d 48 24 bd 9f dc b1 bd
       -0.10689102 0.01808671 -0.040108014 -0.08684658
000310 b6 56 b2 3d db 4c 71 bd 33 03 82 be 3b bd 74 3e
       0.08707945 -0.058911186 -0.25393066 0.2390031
000320 f3 c4 c8 3d 1e 59 a4 be a0 57 ad 3d 76 37 d2 be
       0.0980319 -0.3209924 0.08463979 -0.41057938
000330 e4 bb 59 3d 6f 28 bd 3d d5 5a 67 3d d5 25 a8 be
       0.053157702 0.09236228 0.05648311 -0.32841364
000340 d4 a1 1d 3e 2b 9c 58 be 4b f2 08 be a1 4b 92 be
       0.15393764 -0.21153323 -0.13373677 -0.28573325
000350 0a a9 87 be 2d 59 0a bd 23 8c 62 be 74 7d 9c bd
       -0.26496154 -0.03377645 -0.2212377 -0.07641116
000360 6d 69 e4 bd 21 ce 8c 3e e9 57 d4 3e e8 a1 01 be
       -0.11152921 0.27501014 0.4147332 -0.12659419
000370 a2 d0 3b 3e 22 4f 42 be 7b d6 1c 3e 6d 8c 5f bd
       0.18341306 -0.189755 0.15316193 -0.05457728
000380 57 e8 e2 3c 34 70 c1 bd 77 b9 53 3e 45 d6 1d 3e
       0.027698679 -0.09445229 0.20676218 0.15413769
000390 db 94 d9 3e 9b 10 5c 3e 46 8c a0 3e 20 78 88 3e
       0.4249638 0.2149071 0.3135702 0.26654148
0003a0 eb bb db bd 12 f0 bc bd ee a0 1b bb 52 64 f6 3d
       -0.10729202 -0.09225477 -0.0023747045 0.12030853
0003b0 87 5b 21 be 27 0b 03 3e d6 56 4e be 0f 26 aa bd
       -0.15757571 0.12797223 -0.20150313 -0.0830804
0003c0 b5 b4 4c 39 f5 e1 ed 3d 88 13 4b 3d d2 02 8b 3c
       0.00019522275 0.116153635 0.049579173 0.016969118
0003d0 e1 15 97 be 91 c5 a9 bd db 16 a2 be e2 ad 4f be
       -0.2950888 -0.08289636 -0.31658062 -0.20281175
0003e0 ef de e1 3c 65 8e 84 3d 76 a6 39 be e3 ac ea bd
       0.027572123 0.06472472 -0.18129906 -0.11458757
0003f0 1c f8 b2 bd 6d fb 2c be 0b e4 83 be 49 dd de be
       -0.08738729 -0.16892786 -0.2575992 -0.43528202

Fc_mid.bias f4 [64]
000000 51 e7 a9 be 95 10 fe bd 34 97 bb be a0 a0 a2 be
       -0.33184293 -0.124055065 -0.36638796 -0.31763172
000010 cf af df 3e 4d 13 5f be 68 de 5d 3e 5c 50 79 be
       0.4368882 -0.21784706 0.21666873 -0.24347061
000020 9e 78 81 be 76 86 b7 be bb ae 8c be 04 7f 54 be
       -0.25287336 -0.35844773 -0.2747706 -0.20751578
000030 ea da f1 be 28 60 67 bd f4 5d 2b be f7 25 ce be
       -0.4723733 -0.056488186 -0.16735059 -0.4026334
000040 69 44 70 3e f0 80 81 be 58 56 47 be 3a 4d a5 3d
       0.23463596 -0.25293684 -0.19466531 0.080713704
000050 c4 23 da be a4 b6 47 be b2 2c 85 bd 8d 41 4c be
       -0.42605412 -0.19503266 -0.065026656 -0.1994688
000060 41 3b 67 be 90 0b 8d be dc 92 0f be b3 b2 0d be
       -0.22581197 -0.27547884 -0.14020866 -0.138377
000070 82 a3 0f be d2 da d0 be 1b 8a 44 be 01 52 2e be
       -0.14027217 -0.40791947 -0.19193308 -0.1702347
000080 42 d8 b6 3e ed 59 32 be 38 fd c8 be 51 a7 87 be
       0.35711867 -0.17417116 -0.3925569 -0.2649484
000090 0c 08 50 be 81 af cf be ba 25 a5 be e3 0c 86 be
       -0.2031557 -0.40563586 -0.32255346 -0.26181707
0000a0 76 60 e9 be 98 05 e0 be 9e ef c3 be 68 f7 61 be
       -0.45581406 -0.43754268 -0.3826875 -0.22067034
0000b0 15 8e 3e be d6 e5 9d be 91 09 e1 be 44 81 5b be
       -0.18608887 -0.30839413 -0.4395261 -0.2143603
0000c0 2f 32 85 be 1b 2f be be 2f a3 67 be cc 85 96 be
       -0.2601485 -0.37145314 -0.22620843 -0.29398954
0000d0 51 5a 9d be 61 b1 f0 be 41 4d 39 be b5 ab 66 be
       -0.30732968 -0.4701033 -0.18095876 -0.22526439
0000e0 4a e4 8f be 17 ed d4 bd 8e 88 3b be 4c 74 8e bd
       -0.28103858 -0.10396784 -0.1831381 -0.069557756
0000f0 6d 36 60 be 65 8c 4c be 31 99 b3 be f9 27 62 be
       -0.21895762 -0.19975431 -0.35077813 -0.22085561

Fc_out.weight f4 [8, 64]
000000 06 34 ba bc a8 1f 84 bd 15 c5 ad 3d e0 9a a9 bd
       -0.022729885 -0.064513505 0.08484856 -0.08281493
000010 1c bc d6 be 30 01 2c 3e 93 9e fa bd e3 53 af bd
       -0.4194039 0.16797328 -0.12237277 -0.08560922
000020 68 af b1 3d dd 20 ed bd c6 fe 58 bd 11 b0 25 3c
       0.08676034 -0.11578534 -0.052977346 0.010112778
000030 21 ce ca 3d 7c 9a 45 3d c8 6d 9a be e6 36 94 bc
       0.09902597 0.04824303 -0.3016188 -0.018092584
000040 81 70 e6 3d 55 d7 29 3e 77 5b 6a 3d 46 38 a3 bd
       0.11251927 0.16586049 0.057216134 -0.07969718
000050 28 32 14 be 3b 8b 98 bd f1 92 1f be 31 88 d1 bd
       -0.14472258 -0.07448431 -0.15583397 -0.102310546
000060 89 8d 19 3d 73 d6 25 be 74 6d cd 3c 5b 38 96 bd
       0.037488494 -0.16195087 0.025076605 -0.07334968
000070 cc 5c 83 bc 85 9d f9 bd ff ed db bc 05 44 aa 3d
       -0.01603546 -0.121882476 -0.026846884 0.08313755
000080 ac 8a b6 3e 41 fc be bd 30 66 a9 3d 5c b4 ba bd
       0.35652673 -0.09325457 0.08271444 -0.09116432
000090 31 a5 e9 3d b4 f7 c2 bc 6e a4 31 be 9f c8 d9 bb
       0.11408461 -0.023799755 -0.17347881 -0.0066462304
0000a0 fe b1 0d 3d 75 3d 9a bd a7 48 ba 3c 37 81 ba bd
       0.034593575 -0.07531253 0.022739721 -0.09106677
0000b0 df 59 ee 3d 2a ab 45 be 7d 39 2d be 7d 5f 72 bd
       0.11638235 -0.19303575 -0.16916461 -0.059173096
0000c0 c8 2b 16 bd 80 6f 40 bd 38 b8 d3 bb 6a 25 59 3b
       -0.036662847 -0.046981335 -0.0064611696 0.0033133873
0000d0 7a 41 9a bd bf 38 12 bd 5f 6b 0a 3e e9 02 07 be
       -0.0753202 -0.03569865 0.13517521 -0.13184704
0000e0 61 27 bd 3d cc ee 26 bd 7f a5 01 3d 9f ea 02 be
       0.092360266 -0.04075508 0.03165197 -0.12784813
0000f0 1e d6 c2 3d 66 c6 20 3d 7a b8 11 3d ac 89 be bc
       0.09513496 0.039251707 0.03557632 -0.023259006
000100 47 72 0d 3d e0 fb 8f 3d e7 ac e8 3d a3 09 92 bd
       0.03453281 0.07030463 0.113611035 -0.07130744
000110 3e b2 cb 3d 41 f8 9c 3d 62 71 c4 3c f3 75 9b 3d
       0.099461064 0.07664538 0.023979846 0.075908564
000120 6d 57 3e be 90 18 bf bd dc 5c 16 3d 82 98 2d bd
       -0.18588038 -0.09330857 0.03670965 -0.04238177
000130 b1 0a 18 be 0a 1a 95 3d 7f 58 02 3e b9 64 eb bd
       -0.14847828 0.07280357 0.12729071 -0.11493821
000140 d9 ee 1b be d5 ff 7a 3d 20 be 77 3c 49 fb 57 3e
       -0.15227832 0.061279137 0.015121013 0.21091951
000150 af 03 62 be c6 89 ee 3d ce e2 49 be 7b e3 1d be
       -0.22071718 0.11647372 -0.19715425 -0.15418808
000160 2d 99 ae 3d 25 81 8c 3b dc 4c cf 3a c4 d9 d4 3c
       0.0852531 0.004287856 0.0015815753 0.025982745
000170 ca 1d 8b 3c 72 18 16 be 96 0a ad 3c 65 81 95 3c
       0.016981978 -0.14657763 0.021123212 0.018250177
000180 d9 08 aa bd 84 83 92 bd 3b 98 d2 3c 21 24 a8 bb
       -0.08302469 -0.07153991 0.025707355 -0.00513126
000190 f2 53 84 bc b6 9d e6 bd eb 73 d3 bd 1e c2 7b 3d
       -0.01615331 -0.1126055 -0.10324844 0.06146442
0001a0 4f 20 3f bd 03 8a 41 be 42 70 8e be d5 e4 a5 3c
       -0.04666167 -0.18900304 -0.2782002 0.020250717
0001b0 f9 cc 14 bd c1 62 5c bd b9 80 f4 bd b3 c6 94 bd
       -0.03632829 -0.053805117 -0.119386144 -0.07264461
0001c0 25 1b 35 bd 88 3e 67 be 82 3b 9f 3d 44 5d b3 3c
       -0.04421534 -0.22582448 0.07775022 0.021895058
0001d0 53 55 4e 3e 8c ce 22 be 6e 51 82 3b b8 9c c8 bd
       0.20149736 -0.15899104 0.0039769923 -0.09795517
0001e0 e8 97 dc bc ca 6d 32 bd 0f 9e c2 3b 27 57 69 bd
       -0.026927903 -0.043561734 0.005939252 -0.05696788
0001f0 ed 66 00 3d da 7a d6 bc 10 4f 78 3e 47 8f 14 be
       0.031348158 -0.026181627 0.2424891 -0.14507781
000200 2e a9 1a 3d 5b 7f 28 3d b7 4b 16 be a8 63 56 bd
       0.037759 0.04113708 -0.1467732 -0.052341133
000210 78 64 eb 3d 78 63 b9 3c 08 f2 10 3d d8 8f a6 3d
       0.11493772 0.022630438 0.03538707 0.08132905
000220 9f f8 f5 bd f2 7b 24 be ac c3 1d bd 77 4f 82 bd
       -0.12010311 -0.16062906 -0.038516685 -0.06362813
000230 80 e2 2a bd 87 bd c8 3d 05 7f 33 3e f2 e9 a1 bb
       -0.041719913 0.098017745 0.17528923 -0.0049412185
000240 79 17 9e bd 92 9e 8b 3d 1f e4 b0 3b ab 74 da 3d
       -0.07719321 0.06817354 0.005398288 0.10666784
000250 32 39 07 be cf 6d 94 bd ed 9c a9 3c e7 ea 29 be
       -0.13205412 -0.07247507 0.02070471 -0.16593514
000260 7b 65 7f bd 8c 0e 01 be b3 61 cc 3c 9b 54 d3 3d
       -0.06235264 -0.12603205 0.02494893 0.103188716
000270 23 b4 28 3d a9 df 17 3d 9e 8c ee bd c6 c0 cd bc
       0.041187417 0.037078533 -0.11647914 -0.025116336
000280 e9 66 09 bd 2f a0 cb bc 51 b7 b5 3d 7f 13 bf 3c
       -0.03354541 -0.024856655 0.088728555 0.023324726
000290 b5 69 95 3d bb 18 31 be 4a cf 29 be f6 da ac 3c
       0.07295553 -0.1729459 -0.16582981 0.021100502
0002a0 4e 07 4f bd 0c 99 fe bd 8f d8 95 b8 b0 67 d2 bd
       -0.050544076 -0.12431535 -7.145211e-05 -0.10273683
0002b0 43 54 09 3e 2b a7 0d bc 79 98 a6 bd 34 04 aa 3d
       0.1341105 -0.008645813 -0.081345506 0.08301583
0002c0 46 86 7e 3c 0f ef 32 be 40 8f d2 3b 53 3f d1 3d
       0.015534943 -0.17474006 0.006425768 0.10217156
0002d0 ce 12 71 3d 93 fa 0c bd 67 7b f6 3a f9 49 34 bc
       0.058855824 -0.034418654 0.0018805087 -0.011003965
0002e0 60 3e 30 bd 7b 37 43 bd d0 5a 19 3d 5a 3e ba bc
       -0.043028235 -0.047660332 0.03744012 -0.02273481
0002f0 c7 69 6b bd 49 4a 0b 3e 18 9a fa bb 7e 89 75 be
       -0.057473924 0.13602556 -0.007647764 -0.2397823
000300 d7 ca db bd a6 0a b8 bd ff 2c 7c bd e2 93 73 3c
       -0.10732048 -0.08986406 -0.06156635 0.014866801
000310 9a 65 db be 6d b5 3f bb eb 44 fd bd f9 0e 44 bd
       -0.42850953 -0.0029252425 -0.12366661 -0.04786584
000320 e7 7a 9b 3d b9 34 36 bd c5 be 1c 3c 86 4c b2 bd
       0.07591801 -0.044483874 0.009566967 -0.08706002
000330 2e b0 d7 bc d1 bd ba 3d b2 e3 53 be e6 cf 8c bd
       -0.026329126 0.09118236 -0.20692328 -0.06875591
000340 68 96 ef 3d cf 85 af 3d 1f b6 32 bd f8 21 bc bd
       0.116986096 0.08570444 -0.043630715 -0.091861665
000350 a8 2c 86 bc c5 83 69 bd e7 c2 15 be 21 ad a9 bd
       -0.016378716 -0.05701043 -0.1462513 -0.08284975
000360 ed b4 ab bd 96 2f 5d 3b 31 a4 b3 bd 75 11 65 bd
       -0.08384118 0.0033750287 -0.087715514 -0.05592485
000370 06 47 94 bc f2 2b 06 bd 14 ee e4 bc 51 d7 4d bd
       -0.018100273 -0.032756753 -0.027945556 -0.05025417
000380 9a fd b7 3e 6d b1 9a 3d cf b2 51 bd bd 3d ce bd
       0.3593567 0.075533725 -0.051195916 -0.100703694
000390 fb 5d 25 bd 24 49 df 3c 52 09 d5 bc 3e da 38 bd
       -0.04037283 0.027256556 -0.02600542 -0.045130007
0003a0 87 4e 2f 3e 1b 4d 74 bc d0 24 bc bd 2e ff 2a be
       0.171198 -0.0149109615 -0.09186709 -0.16698906
0003b0 72 bb dc 3d a4 cb b1 bd 2c 8b e1 b8 ad 43 19 3e
       0.1077794 -0.086814195 -0.00010754759 0.14967223
0003c0 ea 97 d0 bd ed 8d a6 bd eb d5 e1 bc 79 53 8e 3d
       -0.10185225 -0.08132539 -0.027567824 0.06949515
0003d0 1b 06 04 be 15 85 35 be 84 71 22 3e 33 26 6b 3d
       -0.12892954 -0.17726548 0.15863615 0.057409476
0003e0 00 94 a9 bd 07 de 0e bd d8 06 49 bd 8b ba 33 be
       -0.08280182 -0.03487971 -0.049078792 -0.17551629
0003f0 24 6a bd 3d 99 73 3d bc ea c8 31 3d 31 b9 a4 bd
       0.0924876 -0.011563205 0.043404497 -0.08043135

Fc_out.bias f4 [8]
000000 f0 77 37 3f 76 05 11 3f 0d 43 05 3f f3 88 37 3f
       0.71667385 0.5664896 0.52055436 0.7169334
000010 e1 5a 37 3f 9b a8 38 3f d1 c5 4f 3d bd 51 17 3e
       0.71623045 0.7213227 0.05072576 0.14777274
