checkpoints/REG.pt (torch_old, 179755 bytes, 14 tensors)

lstm.weight_ih f4 [256, 4]
-0.27308053 -0.32894057 -0.2554705 -0.429495 -0.22505422 -0.5185363 -0.5121661 -0.4427993
-0.2813655 -0.3031169 -0.28382775 -0.36099306 -0.13445266 -0.08853633 -0.16961978 -0.033945113
-0.0934288 -0.4274225 -0.4859498 -0.46549064 -0.3494174 -0.5048713 -0.40256056 -0.43287516
-0.34837636 -0.49609947 -0.5205333 -0.42062524 -0.110393025 -0.25984353 -0.39218396 -0.3238154
-0.19906569 -0.44751805 -0.27428076 -0.41938433 -0.20822115 -0.22314228 -0.39603266 -0.25267282
-0.27988055 -0.6550518 -0.6900137 -0.6156324 -0.3120759 -0.5215271 -0.3238025 -0.39042914
-0.11532763 -0.3033931 -0.44325167 -0.21964325 -0.22593814 -0.477269 -0.43645683 -0.41156211
-0.1407408 -0.29806787 -0.28518006 -0.3266936 -0.28222293 -0.5169517 -0.5153663 -0.57964706
-0.27068523 -0.09185188 -0.1579726 -0.319684 -0.28265688 -0.2569921 -0.35753682 -0.24298397
-0.10132353 -0.29025203 -0.19512782 -0.39874098 -0.19415644 -0.5011458 -0.54382586 -0.5448714
-0.18671495 -0.17038277 -0.29353777 -0.31673414 -0.15731551 -0.3919278 -0.33366168 -0.38233015
-0.27830583 -0.45119974 -0.54748607 -0.5386066 -0.18729271 -0.105767585 0.040347178 -0.093340546
-0.07048303 -0.37650332 -0.35449174 -0.37539852 -0.27457508 -0.5286515 -0.40908098 -0.42090705
-0.22357403 -0.5265455 -0.31233764 -0.46904016 -0.30033082 -0.46335128 -0.5782945 -0.5876711
-0.04745894 -0.24731688 -0.2311345 -0.33954704 -0.4186108 -0.58544594 -0.36651045 -0.5562045
-0.18776046 -0.4530287 -0.33593476 -0.2544393 -0.42650974 -0.6087412 -0.6086489 -0.60990477
-0.24323924 -0.24301481 -0.24742875 -0.17666276 -0.32694328 -0.51497185 -0.38800776 -0.47273013
-0.13632387 -0.22682631 -0.1864039 -0.10558964 -0.10323426 -0.057331994 -0.03642763 -0.06987888
-0.20377932 -0.41796663 -0.47980586 -0.39536145 -0.34046847 -0.34677416 -0.4745881 -0.4772594
-0.20042811 -0.46196505 -0.4493563 -0.5037723 -0.20698649 -0.5932342 -0.4661856 -0.5149
-0.35913754 -0.36239067 -0.31354967 -0.4303471 -0.070221476 -0.45199051 -0.44680622 -0.4431794
0.24566412 -0.19835107 -0.02711843 -0.21524467 -0.0057665315 -0.12556706 -0.2950132 -0.19925301
-0.21335582 -0.5192397 -0.43607533 -0.4667256 -0.09248302 -0.3147851 -0.25062528 -0.3609124
0.11186432 -0.11398501 -0.056171026 -0.17199878 -0.08284166 -0.279438 -0.3464142 -0.40982026
-0.109809384 -0.23730922 -0.064490326 -0.20584929 -0.50548387 -0.6268056 -0.6398476 -0.6174277
0.032047104 -0.20858355 -0.06237791 -0.19111562 -0.38401884 -0.5708732 -0.46640188 -0.3281166
-0.11398819 -0.31268102 -0.18058763 -0.22735223 0.119709946 0.1302822 0.0006329191 0.021025658
0.13089351 -0.15443558 -0.07518773 -0.18607703 -0.040616464 -0.41298956 -0.19484363 -0.38489532
-0.23455094 -0.56018037 -0.5928071 -0.6680915 0.12927157 -0.12730782 0.031824537 -0.1073698
-0.3508987 -0.5393773 -0.45866743 -0.5053295 -0.32778832 -0.22701895 -0.20901366 -0.43761066
-0.07834277 -0.37883356 -0.23084493 -0.3180511 -0.19166583 -0.451222 -0.33589318 -0.4795221
-0.36892417 -0.53908646 -0.46007252 -0.4203173 -0.1339298 -0.24500917 -0.39025044 -0.36606804
00000000: 36d1 8bbe e66a a8be 08cd 82be c5e6 dbbe
00000010: 9d74 66be ccbe 04bf 511d 03bf 97b6 e2be
00000020: 240f 90be 2332 9bbe df51 91be 15d4 b8be
00000030: f5ad 09be 8952 b5bd cfb0 2dbe 080a 0bbd
00000040: 9957 bfbd 1fd7 dabe 6ace f8be ca54 eebe
00000050: d6e6 b2be 3f3f 01bf 6b1c cebe d0a1 ddbe
00000060: 635e b2be c000 febe ac41 05bf 315c d7be
00000070: bd15 e2bd 360a 85be 56cc c8be 22cb a5be
00000080: e0d7 4bbe 1621 e5be 876e 8cbe 8bb9 d6be
00000090: ed37 55be 697f 64be cbc4 cabe 555e 81be
000000a0: 814c 8fbe 7ab1 27bf bda4 30bf 169a 1dbf
000000b0: 6ac8 9fbe cd82 05bf 71c9 a5be 54e6 c7be
000000c0: e430 ecbd 5756 9bbe e2f1 e2be 29ea 60be
000000d0: 545c 67be 9a5c f4be 4577 dfbe 45b8 d2be
000000e0: 5b1e 10be 5a9c 98be 1f03 92be 6244 a7be
000000f0: 867f 90be f256 04bf 0cef 03bf c063 14bf
00000100: 4197 8abe d71c bcbd 92c3 21be 9fad a3be
00000110: 67b8 90be 7894 83be 110f b7be cad0 78be
00000120: b682 cfbd ea9b 94be 96cf 47be c727 ccbe
00000130: f2d0 46be 174b 00bf 2c38 0bbf b17c 0bbf
00000140: 3432 3fbe d278 2ebe 954a 96be fa2a a2be
00000150: 5117 21be c3aa c8be b4d5 aabe c7c0 c3be
00000160: 1a7e 8ebe a703 e7be 0c28 0cbf 1fe2 09bf
00000170: a9c9 3fbe ad9c d8bd 1543 253d 5429 bfbd
00000180: 6859 90bd 0bc5 c0be f17f b5be 3c34 c0be
00000190: 1b95 8cbe b455 07bf 1073 d1be 2181 d7be
000001a0: 97f0 64be b0cb 06bf b8ea 9fbe 0826 f0be
000001b0: f6c4 99be 613c edbe 1c0b 14bf 9d71 16bf
000001c0: 4e64 42bd a340 7dbe 86ae 6cbe 1cd9 adbe
000001d0: 2854 d6be c9df 15bf 42a7 bbbe 6b63 0ebf
000001e0: 4744 40be 61f3 e7be a4ff abbe de45 82be
000001f0: 7c5f dabe 77d6 1bbf 6ad0 1bbf b822 1cbf
00000200: b513 79be e0d8 78be f65d 7dbe 15e7 34be
00000210: 1c65 a7be 32d5 03bf f4a8 c6be af09 f2be
00000220: 7c98 0bbe 2845 68be aae0 3ebe 623f d8bd
00000230: 7c6c d3bd f4d4 6abd 2335 15bd a91c 8fbd
00000240: 87ab 50be b9ff d5be 1da9 f5be d16c cabe
00000250: e251 aebe 628c b1be 36fd f2be 585b f4be
00000260: 073d 4dbe af86 ecbe 0712 e6be 39f7 00bf
00000270: 44f4 53be 32de 17bf e1af eebe 7dd0 03bf
00000280: e0e0 b7be 458b b9be 9589 a0be 7556 dcbe
00000290: 47d0 8fbd 4d6b e7be c9c3 e4be 69e8 e2be
000002a0: 608f 7b3e 8b1c 4bbe 7827 debc 1969 5cbe
000002b0: 2cf5 bcbb a794 00be f80b 97be fb08 4cbe
000002c0: f379 5abe e5ec 04bf 4445 dfbe a8f6 eebe
000002d0: bd67 bdbd 832b a1be f551 80be 83c9 b8be
000002e0: 1f19 e53d f970 e9bd 9713 66bd 7320 30be
000002f0: e3a8 a9bd 7f12 8fbe 345d b1be f6d3 d1be
00000300: bee3 e0bd 3001 73be 8113 84bd 28ca 52be
00000310: 6467 01bf 5576 20bf 0dcd 23bf be0f 1ebf
00000320: d343 033d ed96 55be fb7f 7fbd d0b3 43be
00000330: 1e9e c4be bf24 12bf 3acc eebe e6fe a7be
00000340: a472 e9bd ba17 a0be f7eb 38be 06cf 68be
00000350: 7d2a f53d b268 053e 7bea 253a 003e ac3c
00000360: f308 063e 5c24 1ebe 06fc 99bd fa8a 3ebe
00000370: 735d 26bd 5e73 d3be 1785 47be 0011 c5be
00000380: 1f2e 70be fb67 0fbf 35c2 17bf 0b08 2bbf
00000390: c45f 043e fb5c 02be 725a 023d b3e4 dbbd
000003a0: ffa8 b3be a114 0abf 75d6 eabe 465d 01bf
000003b0: dfd3 a7be a877 68be ad07 56be 810e e0be
000003c0: 2d72 a0bd 79f6 c1be 9d62 6cbe 98d7 a2be
000003d0: 0c44 44be 9206 e7be 31fa abbe ec83 f5be
000003e0: a1e3 bcbe 9201 0abf a08e ebbe d433 d7be
000003f0: e524 09be afe3 7abe e8ce c7be 456d bbbe

lstm.weight_hh f4 [256, 64]
0.0040053437 0.09639444 -0.016373126 -0.17446774 0.039630238 0.053453267 -0.017305074 -0.01822385
0.062460996 0.08976007 0.11848899 -0.02435196 0.062012866 -0.040541247 -0.26689023 0.0053894017
0.08812511 -0.10923924 -0.061118126 -0.13444573 0.122078195 0.035546765 -0.13278928 -0.21146466
-0.10810359 -0.05801661 -0.02292642 -0.10878965 0.23961075 0.1344224 0.048355374 -0.034511473
-0.05484118 0.052097883 0.033844065 -0.087914445 -0.0004913441 0.065583445 0.032629363 0.06751983
0.034143105 0.011530512 -0.027020182 -0.19729899 -0.06293734 0.09993734 0.019235075 0.080772944
-0.1061466 -0.08339143 -0.05797547 -0.033507485 0.049366925 0.1649864 -0.13777731 0.17661835
-0.02468957 -0.06277622 0.08506628 -0.023149446 -0.025531527 0.020314801 0.08601758 -0.046354946
-0.034674026 -0.06411865 0.039448075 -0.17951149 0.020327507 0.06617447 -0.12969245 -0.21873493
0.17327769 0.05252722 0.025563149 -0.083696716 -0.09126509 0.0723279 -0.20576115 0.0534571
-0.048126906 -0.02997265 0.030090408 -0.06768586 0.07982956 -0.05380605 -0.08959632 -0.29190093
-0.11938675 0.040624104 -0.051227104 -0.08316984 0.1950866 0.10927949 -0.092413105 -0.044611704
-0.19019352 0.050608594 0.08834614 -0.090841465 0.06270849 0.013326172 0.11222831 -0.063075505
-0.1978082 0.15839726 -0.13788435 -0.20709412 -0.03216015 -0.07260745 -0.013329141 0.1290829
-0.23212422 -0.14379553 -0.010932333 0.09390646 0.112711005 0.1927778 -0.12706336 0.09899028
-0.09749044 -0.015986744 0.011640459 0.045028068 -0.078833 -0.053869106 0.012273335 -0.16776192
-0.16377738 -0.15579894 -0.036754787 -0.3554387 -0.0069639743 -0.051576212 -0.063148424 -0.15560558
0.07420803 0.061955024 0.029665709 -0.028747654 -0.07544032 -0.096454084 -0.2952257 0.03483637
-0.0826952 -0.06907006 0.08129206 -0.12078881 0.015624635 -0.111185946 -0.061176628 -0.14204237
-0.11933433 0.040786337 0.12835428 -0.0031797048 0.1861252 -0.0449928 -0.09135832 -0.036687862
0.08700596 -0.11618818 0.21271797 -0.08175095 0.10739975 0.09663316 0.0591136 -0.045421835
-0.16132836 -0.045855265 -0.13397592 -0.04380488 -0.091022216 -0.11196604 0.03327295 0.05248048
-0.15719041 0.056719642 -0.09912333 0.05567518 -0.05689748 0.32226798 -0.12601703 0.07313184
0.048504464 -0.22320725 0.007861663 0.2077998 -0.17167877 -0.1103769 0.07021791 -0.13792937
0.0036243675 0.036788046 0.115739785 -0.12543532 -0.16956812 -0.023865854 -0.13733055 -0.081420295
0.053677354 0.1039405 -0.010638316 -0.0017497214 0.08505023 0.03166369 0.045115884 -0.026345354
-0.15446343 -0.024121339 0.1355201 -0.14516287 0.16299693 0.090628564 0.09808978 0.17147745
0.020890523 0.013827413 -0.12756366 -0.20393163 0.018718312 -0.12841697 0.14581326 -0.015018388
0.1890932 0.024917873 0.027680185 -0.10121695 0.07411855 0.04459945 -0.07917193 0.12971222
-0.048328754 -0.06844354 -0.19343612 0.093754806 0.059429824 -0.04006392 -0.18482693 -0.038787425
0.10068146 -0.11070687 -0.018013062 -0.0026428027 -0.15842818 0.21278378 -0.07959714 0.1917143
-0.0730778 -0.098956496 0.01554521 0.06777175 0.023695365 0.05582899 0.11452883 0.060647096
00000000: 423f 833b 736a c53d ef20 86bc aca7 32be
00000010: 5153 223d d0f1 5a3d 5fc3 8dbc 2f4a 95bc
00000020: 1ad7 7f3d 21d4 b73d 5baa f23d c37d c7bc
00000030: 3401 7e3d 940e 26bd d6a5 88be 9499 b03b
00000040: f07a b43d d3b8 dfbd 0057 7abd 24ac 09be
00000050: 2204 fa3d 7c99 113d eaf9 07be 318a 58be
00000060: 6a65 ddbd d3a2 6dbd 30d0 bbbc 1ccd debd
00000070: 855c 753e 07a6 093e 4910 463d e75b 0dbd
00000080: 25a1 60bd 9764 553d 13a0 0a3d 7d0c b4bd
00000090: 8bcd 00ba 9d50 863d 5ea6 053d d647 8a3d
000000a0: a4d9 0b3d 79ea 3c3c 6e59 ddbc bf08 4abe
000000b0: 4be5 80bd f3ab cc3d e092 9d3c 496c a53d
000000c0: 6363 d9bd 20c9 aabd b077 6dbd 253f 09bd
000000d0: f934 4a3d 32f2 283e 7f15 0dbe 71db 343e
000000e0: c841 cabc d290 80bd 3b37 ae3d e8a3 bdbc
000000f0: 7e27 d1bc 3a6b a63c fc29 b03d afde 3dbd
00000100: 5a06 0ebd a450 83bd 4e94 213d dcd1 37be
00000110: df85 a63c 7b86 873d 19ce 04be 0dfc 5fbe
00000120: b56f 313e c826 573d cf69 d13c 2f69 abbd
00000130: 31e9 babd a620 943d 0db3 52be d5f5 5a3d
00000140: b820 45bd 3489 f5bc 2980 f63c e29e 8abd
00000150: ae7d a33d bc63 5cbd 477e b7bd 0a74 95be
00000160: 0a81 f4bd 7665 263d 83d3 51bd f354 aabd
00000170: c8c4 473e edcd df3d 1543 bdbd c3ba 36bd
00000180: 17c2 42be f54a 4f3d d2ee b43d 170b babd
00000190: 4f6d 803d 0456 5a3c f5d7 e53d bb2d 81bd
000001a0: 3c8e 4abe e432 223e 8e31 0dbe 7b10 54be
000001b0: 5dba 03bd 37b3 94bd 7862 5abc 4f2e 043e
000001c0: f9b1 6dbe 233f 13be 871d 33bc 0852 c03d
000001d0: 07d5 e63d 8b67 453e e61c 02be 6abb ca3d
000001e0: 11a9 c7bd a2f6 82bc a0b7 3e3c 5a6f 383d
000001f0: 3273 a1bd daa5 5cbd 1916 493c c8c9 2bbe
00000200: 42b5 27be c289 1fbe 308c 16bd 10fc b5be
00000210: 0d32 e4bb 9441 53bd f653 81bd 1257 1fbe
00000220: 61fa 973d 8dc4 7d3d 8005 f33c 3380 ebbc
00000230: 7480 9abd b889 c5bd d327 97be 95b0 0e3d
00000240: 1a5c a9bd 9b74 8dbd 747c a63d 2060 f7bd
00000250: 78fe 7f3c 75b5 e3bd 5894 7abd 8e73 11be
00000260: 8f65 f4bd 930f 273d 4e6f 033e 9862 50bb
00000270: 9b97 3e3e 5f4a 38bd 121a bbbd 0346 16bd
00000280: 2e30 b23d 12f4 edbd bdd2 593e 0b6d a7bd
00000290: 66f4 db3d 9be7 c53d 1a21 723d 3f0c 3abd
000002a0: 4333 25be bbd2 3bbd fc30 09be bf6c 33bd
000002b0: db69 babd 744e e5bd 3849 083d c6f5 563d
000002c0: 86f6 20be db52 683d 2c01 cbbd a80b 643d
000002d0: 550d 69bd 4f00 a53e 9c0a 01be 25c6 953d
000002e0: 9eac 463d 7190 64be 34ce 003c 79c9 543e
000002f0: 8fcc 2fbe 490d e2bd 68ce 8f3d 5b3d 0dbe
00000300: cc86 6d3b 10af 163d fb08 ed3d 1e72 00be
00000310: 44a3 2dbe 5382 c3bc 61a0 0cbe afbf a6bd
00000320: c9dc 5b3d c2de d43d 554c 2ebc e856 e5ba
00000330: d12e ae3d c9b1 013d 6fcb 383d 36d2 d7bc
00000340: a92b 1ebe 1d9a c5bc c8c5 0a3e 93a5 14be
00000350: abe8 263e 789b b93d 4be3 c83d c997 2f3e
00000360: 9a22 ab3c 608c 623c 0ca0 02be 74d3 50be
00000370: 2557 993c bd7f 03be 1250 153e af0f 76bc
00000380: a6a1 413e 9120 cc3c 8ec1 e23c d54a cfbd
00000390: 77cb 973d eaad 363d e524 a2bd 48d3 043e
000003a0: 5ff4 45bd 202c 8cbd 1e14 46be 8502 c03d
000003b0: b06c 733d 111a 24bd 4543 3dbe 90df 1ebd
000003c0: 1532 ce3d 49ba e2bd 2190 93bc df32 2dbb
000003d0: ff3a 22be fee3 593e d303 a3bd c150 443e
000003e0: d0a9 95bd b4a9 cabd 56b1 7e3c eacb 8a3d
000003f0: c81c c23c f0ac 643d 178e ea3d 1769 783d

lstm.bias_ih f4 [256]
-0.41134992 -0.5043633 -0.33176097 -0.0523564 -0.30022806 -0.48800284 -0.48365012 -0.31497115
-0.39192662 -0.31746942 -0.5755625 -0.56466764 -0.23954636 -0.27045506 -0.16997872 -0.5996789
-0.16969797 -0.3556322 -0.36691737 -0.3651444 -0.41167837 -0.4204393 -0.5506917 -0.06477423
-0.44098216 -0.5396688 -0.44511726 -0.4957424 -0.11121079 -0.50752366 -0.27244982 -0.5348934
-0.41607708 -0.4851976 -0.33807877 -0.17242709 -0.5827516 -0.38166064 -0.41062072 -0.46869764
-0.48384622 -0.40243337 -0.14629692 -0.33111465 -0.6170019 -0.31798115 -0.26934654 -0.33567598
-0.28231233 -0.60690373 -0.1513464 -0.36303887 -0.13902989 -0.1751977 -0.13743772 -0.36755675
-0.48080936 -0.15616569 -0.32626736 -0.24942611 -0.19552673 -0.4328787 -0.45483327 -0.3357618
-0.45637393 -0.51133525 -0.45868823 -0.124913804 -0.43666312 -0.3981885 -0.46392593 -0.42341924
-0.28954396 -0.43099186 -0.5074181 -0.37358254 -0.28627354 -0.22243443 -0.17838795 -0.59814703
-0.51824826 -0.3239552 -0.4084355 -0.5274125 -0.45963848 -0.43478262 -0.43236047 -0.08843293
-0.3297025 -0.4584625 -0.24755646 -0.49890253 -0.23456332 -0.60050434 -0.45176068 -0.5337919
-0.3107143 -0.39627248 -0.17840621 -0.23444863 -0.43381426 -0.6209304 -0.3661308 -0.30825314
-0.3964051 -0.33446896 -0.21333529 -0.3238227 -0.55308485 -0.2867773 -0.32203498 -0.47786734
-0.074375324 -0.52692324 -0.14130618 -0.4547139 -0.3717504 -0.21411268 -0.060739905 -0.13286503
-0.620354 -0.08497722 -0.52568156 -0.5763845 -0.3000842 -0.47098622 -0.37853476 -0.10388038
-0.037386935 0.13875015 0.06829041 0.15651377 -0.19196361 -0.13774762 -0.06558091 -0.0066118664
-0.038757022 0.08335809 -0.08881687 -0.022759976 0.07760276 0.121076465 0.0119793955 -0.002377809
-0.1550228 0.11232623 0.07617309 -0.069482304 -0.07198117 -0.042032022 -0.002883778 0.08858704
-0.08761646 0.03269077 -0.13197406 -0.0970629 0.0036860323 0.08244617 0.12428725 -0.04525925
0.046879675 0.09141598 -0.03331529 0.060575143 0.06530583 -0.00924292 -0.06786638 0.036675315
0.004262556 -0.019922424 -0.06382139 0.026794119 -0.04184926 -0.12968771 -0.1238592 -0.0011055248
0.08162396 -0.0505067 0.007228607 -0.020470722 -0.080623426 0.06573591 0.07743874 0.12143997
0.05909904 0.0053347265 -0.09588375 0.09461842 0.024457226 -0.035475437 0.053999014 0.21782182
-0.24886139 -0.38801825 -0.47839025 -0.12572475 -0.3554885 -0.56710684 -0.59828526 -0.4334291
-0.34625062 -0.2579633 -0.61695707 -0.5220541 -0.24591455 -0.34750795 -0.21903056 -0.6251374
-0.105505936 -0.38153893 -0.364051 -0.42242885 -0.23854323 -0.36324376 -0.5863182 -0.19115569
-0.2660141 -0.3261139 -0.37481967 -0.35872045 -0.18782236 -0.38902524 -0.45918542 -0.38677877
-0.36821827 -0.5439692 -0.2688749 -0.18043001 -0.5903709 -0.45102134 -0.3514799 -0.59632385
-0.34130174 -0.45932782 -0.12163969 -0.15485127 -0.618312 -0.21103308 -0.27071792 -0.3914337
-0.106817365 -0.55430055 -0.060428154 -0.4282048 -0.25331435 -0.17372175 -0.17806447 -0.38896933
-0.51371044 -0.15494676 -0.49272683 -0.249453 -0.23909195 -0.43954498 -0.56639236 -0.23187189
00000000: 759c d2be f41d 01bf 93dc a9be aa73 56bd
00000010: 7eb7 99be 82db f9be fda0 f7be e643 a1be
00000020: 9baa c8be 5a8b a2be 1058 13bf 0f8e 10bf
00000030: a44b 75be 1679 8abe e70e 2ebe 8e84 19bf
00000040: 4ec5 2dbe 6c15 b6be 98dc bbbe 35f4 babe
00000050: 82c7 d2be d243 d7be 22fa 0cbf 5aa8 84bd
00000060: 6ac8 e1be bc27 0abf 69e6 e3be f3d1 fdbe
00000070: 7cc2 e3bd 12ed 01bf 8b7e 8bbe c6ee 08bf
00000080: 0e08 d5be d26b f8be a918 adbe ba90 30be
00000090: 352f 15bf 0669 c3be e13c d2be 23f9 efbe
000000a0: b1ba f7be bf0b cebe dcce 15be dc87 a9be
000000b0: d6f3 1dbf 6dce a2be cae7 89be b9dd abbe
000000c0: 3e8b 90be 0b5e 1bbf 8dfa 1abe 3be0 b9be
000000d0: da5d 0ebe 0767 33be 79bc 0cbe 6630 bcbe
000000e0: a52c f6be e6e9 1fbe 840c a7be 8f69 7fbe
000000f0: 2938 48be 47a2 ddbe e8df e8be f8e8 abbe
00000100: d8a9 e9be dee6 02bf 2fd9 eabe cfd2 ffbd
00000110: 4f92 dfbe 5ddf cbbe b387 edbe 68ca d8be
00000120: 1b3f 94be f7aa dcbe 27e6 01bf 3646 bfbe
00000130: 7292 92be dac5 63be 55ab 36be 2a20 19bf
00000140: ebab 04bf 75dd a5be 751e d1be 8104 07bf
00000150: bc55 ebbe d49b debe 5a5e ddbe 531c b5bd
00000160: c4ce a8be 99bb eabe 717f 7dbe 2770 ffbe
00000170: 5e31 70be a7ba 19bf 2d4d e7be 96a6 08bf
00000180: f215 9fbe 3ae4 cabe 1eb0 36be 4d13 70be
00000190: e71c debe 4bf5 1ebf 7f75 bbbe 5bd3 9dbe
000001a0: 9cf5 cabe 843f abbe 9174 5abe 17cc a5be
000001b0: f896 0dbf 79d4 92be c5e1 a4be 07ab f4be
000001c0: 1752 98bd 71e4 06bf 91b2 10be 43d0 e8be
000001d0: 1256 bebe 5b40 5bbe 68ca 78bd c50d 08be
000001e0: 85cf 1ebf 8908 aebd 1193 06bf ef8d 13bf
000001f0: a3a4 99be 1b25 f1be 4fcf c1be 3dbf d4bd
00000200: 0b23 19bd 8514 0e3e d8db 8b3d 2545 203e
00000210: 1c92 44be b60d 0dbe 494f 86bd 5ba8 d8bb
00000220: afbf 1ebd a5b7 aa3d 9ee5 b5bd 2173 babc
00000230: 32ee 9e3d f0f6 f73d 3a45 443c 04d5 1bbb
00000240: 4cbe 1ebe 4b0b e63d a300 9c3d bd4c 8ebd
00000250: dd6a 93bd c529 2cbd c4fd 3cbb 1f6d b53d
00000260: 4270 b3bd c2e6 053d 3524 07be eac8 c6bd
00000270: 5c91 713b 8ad9 a83d 508a fe3d c361 39bd
00000280: e704 403d 4d38 bb3d 9d75 08bd a41d 783d
00000290: 10bf 853d 9e6f 17bc 87fd 8abd db38 163d
000002a0: e9ac 8b3b 5a34 a3bc cab4 82bd 577f db3c
000002b0: 216a 2bbd dbcc 04be e4a9 fdbd 42e7 90ba
000002c0: 762a a73d 1de0 4ebd f3dd ec3b 37b2 a7bc
000002d0: e51d a5bd 8ca0 863d 3498 9e3d 85b5 f83d
000002e0: d611 723d eece ae3b b35e c4bd 4dc7 c13d
000002f0: 855a c83c b14e 11bd 122e 5d3d af0c 5f3e
00000300: 85d5 7ebe 54aa c6be 91ef f4be fdbd 00be
00000310: 9702 b6be ea2d 11bf 3929 19bf 6bea ddbe
00000320: c347 b1be c413 84be e6f0 1dbf 56a5 05bf
00000330: 06d1 7bbe 90ec b1be 8c49 60be 0109 20bf
00000340: 7f13 d8bd 1259 c3be e564 babe 9848 d8be
00000350: ad44 74be 16fb b9be f318 16bf 51be 43be
00000360: 0033 88be 67f8 a6be 5de8 bfbe 35aa b7be
00000370: 8154 40be 512e c7be 5a1a ebbe de07 c6be
00000380: 1b87 bcbe 9141 0bbf f9a9 89be a5c2 38be
00000390: 8c22 17bf 45ec e6be 2cf5 b3be aea8 18bf
000003a0: 1abf aebe 042d ebbe 3b1e f9bd 5591 1ebe
000003b0: b249 1ebf 0e19 58be 8a9b 8abe ff69 c8be
000003c0: 10c3 dabd a4e6 0dbf 8383 77bd a93d dbbe
000003d0: 6bb2 81be 1de4 31be 8856 36be fd26 c7be
000003e0: 8782 03bf 5daa 1ebe b146 fcbe 9b70 7fbe
000003f0: 85d4 74be 0a0c e1be 17ff 10bf d36f 6dbe

lstm.bias_hh f4 [256]
-0.21619922 -0.4203971 -0.4659745 -0.1365839 -0.38884023 -0.38026252 -0.6044911 -0.30031693
-0.3553336 -0.159399 -0.6946684 -0.38854298 -0.34843096 -0.41160586 -0.114415534 -0.60829896
-0.2503584 -0.4086053 -0.3116512 -0.40105748 -0.41213277 -0.5056984 -0.38295665 -0.21126343
-0.29354972 -0.46943614 -0.48518 -0.37518272 -0.1934633 -0.42524928 -0.27069443 -0.4247227
-0.3063184 -0.58657587 -0.1813064 -0.20389797 -0.50292397 -0.4400756 -0.43975225 -0.5690241
-0.32523033 -0.3422009 -0.1906037 -0.16348273 -0.56272125 -0.09959396 -0.12455537 -0.46492893
-0.27926296 -0.4556691 -0.2576324 -0.46249554 -0.29806095 -0.0917459 -0.24561952 -0.40645668
-0.47547683 -0.044158798 -0.43553302 -0.4414284 -0.24677007 -0.56761676 -0.47259828 -0.31669402
-0.4700605 -0.46356553 -0.30313903 0.04065072 -0.40161267 -0.3556971 -0.41220483 -0.34362748
-0.33893704 -0.391991 -0.49972385 -0.42075345 -0.5016213 -0.23831719 -0.2595085 -0.45301986
-0.42198455 -0.36788988 -0.3417021 -0.5500709 -0.65858746 -0.52279544 -0.41266474 -0.25194722
-0.39599577 -0.4997027 -0.46695724 -0.4472727 -0.26683405 -0.6908925 -0.36782724 -0.6639179
-0.16389793 -0.35384077 -0.24798696 -0.15913765 -0.40908346 -0.57900107 -0.27802914 -0.5009741
-0.3523072 -0.31680733 -0.13790905 -0.177108 -0.5383624 -0.1560114 -0.24496901 -0.48730525
-0.22326201 -0.6302795 -0.09439645 -0.43843552 -0.34192806 -0.23100935 -0.27330428 -0.17855091
-0.4304921 -0.107363045 -0.42723694 -0.5247166 -0.36393252 -0.39416802 -0.47067064 -0.10119255
0.040796086 -0.031160222 0.0669715 0.08456504 0.00034626483 0.015041718 -0.03398046 -0.09830089
-0.052427705 0.18938954 0.005334051 0.04228597 0.11313554 -0.037486278 0.06608844 0.13004547
0.010746021 0.08036677 -0.019179214 -0.06865972 0.11359533 -0.06039494 0.1330861 0.11762269
0.06597444 0.12383557 0.023404174 0.062835194 -0.06647332 -0.004168627 0.0027670846 -0.015916351
0.07803054 0.051026467 -0.049179077 0.117505096 0.034943566 0.049518235 0.095490724 0.09083188
-0.09219484 -0.14037672 -0.1571966 -0.025494026 0.06070432 -0.19038545 -0.09553459 0.117829956
0.109796435 -0.036572088 0.13141327 -0.08035767 -0.24163523 0.07840415 0.13173687 0.09003647
-0.0707942 0.025556894 -0.07713564 -0.05639398 0.07530226 -0.07307545 0.08228013 0.12737018
-0.24652158 -0.5173429 -0.3241006 -0.055602875 -0.3746557 -0.47670493 -0.47079635 -0.39063632
-0.30581057 -0.29875317 -0.73850125 -0.40565765 -0.30955008 -0.4109618 -0.32804888 -0.42059663
-0.11903832 -0.45851856 -0.2175953 -0.4498321 -0.22685868 -0.4018057 -0.5831138 -0.05285393
-0.45926458 -0.33435938 -0.46383816 -0.44510615 -0.22581391 -0.58165896 -0.48591974 -0.48201314
-0.2690474 -0.45405388 -0.21095741 -0.17330879 -0.4458634 -0.3917105 -0.31333634 -0.4357361
-0.4744965 -0.49366358 -0.15553209 -0.2052079 -0.6195128 -0.103331 -0.25327218 -0.4482173
-0.1782396 -0.6558065 -0.20156111 -0.47579157 -0.34821886 -0.0016857774 -0.22706418 -0.32756755
-0.5678438 -0.14151861 -0.5136948 -0.454318 -0.1575227 -0.53269655 -0.3961832 -0.33132443
00000000: 5463 5dbe 4a3e d7be 3694 eebe a6dc 0bbe
00000010: 1116 c7be c5b1 c2be eebf 1abf 24c3 99be
00000020: 49ee b5be 7e39 23be cad5 31bf 1bef c6be
00000030: 8b65 b2be 01be d2be b152 eabd 7bb9 1bbf
00000040: fa2e 80be b734 d1be bf90 9fbe 6857 cdbe
00000050: 1103 d3be 7375 01bf e512 c4be 7155 58be
00000060: 264c 96be ef59 f0be 8369 f8be f317 c0be
00000070: 3e1b 46be 46ba d9be 7698 8abe 4175 d9be
00000080: c4d5 9cbe d629 16bf 63a8 39be a1ca 50be
00000090: a0bf 00bf 9751 e1be 3527 e1be 90ab 11bf
000000a0: 9784 a6be f534 afbe 9e2d 43be 0468 27be
000000b0: 800e 10bf ebf7 cbbd e316 ffbd 2a0b eebe
000000c0: 8efb 8ebe 764d e9be 65e8 83be 37cc ecbe
000000d0: 729b 98be 46e5 bbbd af83 7bbe 171b d0be
000000e0: b371 f3be dbdf 34bd 2ffe debe e702 e2be
000000f0: 4bb1 7cbe 554f 11bf 67f8 f1be b825 a2be
00000100: c5ab f0be 7658 edbe 0a35 9bbe 5f81 263d
00000110: 2da0 cdbe ee1d b6be 830c d3be f1ef afbe
00000120: 2889 adbe 0bb3 c8be cedb ffbe ff6c d7be
00000130: 416a 00bf 6c09 74be 4cde 84be 38f2 e7be
00000140: 5c0e d8be 105c bcbe 94f3 aebe 72d1 0cbf
00000150: 3099 28bf ecd5 05bf cb48 d3be 3aff 80be
00000160: f5bf cabe 08d9 ffbe 0515 efbe ed00 e5be
00000170: 799e 88be 55de 30bf da53 bcbe 86f6 29bf
00000180: dcd4 27be 9e2a b5be 4bf0 7dbe fbf4 22be
00000190: 6373 d1be 6a39 14bf d659 8ebe d73f 00bf
000001a0: 9c61 b4be 9234 a2be 0838 0dbe cd5b 35be
000001b0: 1ed2 09bf 74c1 1fbe 28d9 7abe 1380 f9be
000001c0: cc9e 64be ff59 21bf ed52 c1bd 9f7a e0be
000001d0: 3211 afbe b78d 6cbe 8aee 8bbe 0dd6 36be
000001e0: 7669 dcbe 28e1 dbbd cdbe dabe d453 06bf
000001f0: 5d55 babe 64d0 c9be befb f0be 0a3e cfbd
00000200: cc19 273d b943 ffbc 5b28 893d 7030 ad3d
00000210: e18a b539 8a71 763c 182f 0bbd fa51 c9bd
00000220: 6fbe 56bd 55ef 413e 43c9 ae3b 0e34 2d3d
00000230: 9bb3 e73d 368b 19bd 6059 873d a42a 053e
00000240: 1410 303c 5597 a43d ba1d 9dbc 789d 8cbd
00000250: aba4 e83d af60 77bd b947 083e 2ae4 f03d
00000260: 9b1d 873d 819d fd3d 1cba bf3c bdaf 803d
00000270: 2a23 88bd fa98 88bb fa57 353b 0263 82bc
00000280: 7ace 9f3d 2101 513d 0070 49bd 83a6 f03d
00000290: fc20 0f3d a2d3 4a3d a490 c33d 1106 ba3d
000002a0: a6d0 bcbd eabe 0fbe 25f8 20be d9d8 d0bc
000002b0: 18a5 783d 67f4 42be a4a7 c3bd d550 f13d
000002c0: f4dc e03d 9dcc 15bd 3391 063e 9092 a4bd
000002d0: 3a6f 77be 5b92 a03d 08e6 063e 0a65 b83d
000002e0: 8dfc 90bd b15c d13c 4af9 9dbd 60fd 66bd
000002f0: 1238 9a3d 95a8 95bd 7c82 a83d 546d 023e
00000300: 2770 7cbe 9670 04bf 84f0 a5be d7bf 63bd
00000310: dfd2 bfbe ab12 f4be 380c f1be 7c01 c8be
00000320: 3493 9cbe 2df6 98be 6b0e 3dbf 5cb2 cfbe
00000330: 597d 9ebe 9669 d2be 06f6 a7be 7158 d7be
00000340: 5dca f3bd f2c2 eabe 4dd1 5ebe 6550 e6be
00000350: a44d 68be 7ab9 cdbe f246 15bf 5d7d 58bd
00000360: ba24 ebbe 2731 abbe 327c edbe f4e4 e3be
00000370: c33b 67be 9ae7 14bf 79ca f8be 6dca f6be
00000380: 95c0 89be c079 e8be 3805 58be dc77 31be
00000390: 3548 e4be 478e c8be 9f6d a0be cd18 dfbe
000003a0: 35f1 f2be 79c1 fcbe ce43 1fbe 0522 52be
000003b0: 6498 1ebf 349f d3bd e4ac 81be bd7c e5be
000003c0: 7184 36be efe2 27bf 0966 4ebe f49a f3be
000003d0: be49 b2be 4ef5 dcba 8383 68be efb6 a7be
000003e0: 365e 11bf 41ea 10be 8181 03bf 5e9c e8be
000003f0: a14d 21be cd5e 08bf 86d8 cabe 5ba3 a9be

Fc_mid.weight f4 [64, 64]
-0.10014542 0.027394399 0.030656556 0.0086304005 -0.023486452 0.06732914 -0.113327295 0.049959287
-0.056480672 -0.09359102 0.051254958 -0.14073977 -0.10466355 0.10097145 -0.025510984 -0.037188977
-0.111276776 -0.058778375 0.06262397 0.01879841 0.06741731 -0.012658322 -0.104512006 -0.0997567
-0.06182171 -0.045210797 0.109083146 -0.010118295 0.16800942 -0.05356131 -0.10763414 0.13377483
0.0638986 -0.0875991 -0.06522952 -0.067624755 -0.04858675 0.09385706 0.021129921 -0.16368738
-0.0629502 0.002738925 -0.1421752 -0.062462505 0.078769885 -0.068336144 0.04384451 -0.082994
-0.090440184 0.018153105 -0.056253146 -0.1186781 -0.037448805 0.089928016 0.06507483 0.010991259
0.050479554 -0.008978889 0.14525543 0.05464561 0.020681545 -0.013263235 0.1102859 -0.019141901
-0.005737556 0.08043933 -0.08146125 0.08153524 -0.0057194596 0.08955879 -0.073192045 0.114710115
0.053138025 0.089000374 -0.031380925 0.010037598 0.07304652 -0.04069875 0.06880585 -0.0030743221
-0.11030966 0.111382 -0.084946625 -0.049818695 -0.092224814 0.03308476 -0.031144744 0.0465063
-0.030800797 0.033642013 -0.103600055 0.08489653 -0.043424357 0.107997075 0.06540111 -0.06277081
-0.090256006 -0.0430375 -0.06453343 -0.046922717 0.09320216 -0.011340044 -0.06573365 -0.03547336
-0.092853166 0.032666456 -0.09201546 0.02962132 0.068963125 0.062734984 0.015372079 -0.052734498
0.036497615 0.07360614 0.07394854 -0.12998304 0.09722022 -0.020051513 -0.029120535 -0.059649974
0.041805908 -0.08789489 0.109397165 0.12634292 -0.08747431 -0.010036367 0.10939473 0.009570681
-0.096500225 0.13131984 -0.058258586 -0.1211488 0.0044605173 -0.023670094 -0.09274238 0.05585425
-0.12712131 0.044572473 -0.033267494 -0.08183153 -0.12214283 0.04000667 -0.15118435 0.115078315
-0.09739325 -0.0070018177 0.060931556 0.095328294 0.0350202 0.08200578 -0.017205894 -0.07548598
0.10537419 -0.019145438 -0.025421984 -0.0071069626 0.02635109 0.07441641 0.04361651 0.15442409
0.05562458 0.092791 0.1268648 -0.0052668946 0.09358983 0.05653385 0.08832939 0.05797787
-0.09686075 0.044717483 -0.004637906 0.019549694 0.0529791 -0.017601507 -0.061304376 0.062450644
-0.15441078 -0.05718247 -0.017968705 0.054302786 0.06170263 0.17490105 -0.14258328 0.0050087576
-0.02280662 -0.11347088 0.14187978 0.08094844 -0.07606424 0.09550577 0.09758416 0.04044214
0.011695743 -0.030199692 0.02278182 -0.04302427 -0.016234204 0.093721166 -0.09630279 -0.11182444
-0.017473206 0.054689705 -0.054392353 0.12496656 -0.0777843 -0.007777229 0.090812355 -0.0819588
0.08062591 -0.033276275 0.08314055 0.045364276 0.10869107 -0.08964433 0.08407268 0.012568682
-0.017574921 0.09533973 -0.06560516 -0.06562194 0.11199753 -0.038549393 0.12361163 -0.1104072
-0.010726869 0.092752755 0.016922116 -0.03925614 0.050434962 -0.052504092 -0.10192248 -0.040776864
0.034837365 0.06824337 -0.025878176 -0.08992526 0.097661614 -0.005532488 0.0516714 -0.088107124
0.102796465 0.049226254 -0.057538867 0.02754271 -0.02668789 0.08330245 0.038768068 -0.052340165
0.015386701 -0.11599961 0.027387545 -0.08358514 0.003820166 -0.024852544 0.097196296 -0.006371394
00000000: 0b19 cdbd 386a e03c 7523 fb3c 8666 0d3c
00000010: a966 c0bc dce3 893d 2418 e8bd 1ca2 4c3d
00000020: 4758 67bd a6ac bfbd b8f0 513d 161e 10be
00000030: d859 d6bd 1fca ce3d 69fc d0bc 7853 18bd
00000040: 14e5 e3bd 98c1 70bd ff40 803d 20ff 993c
00000050: 1612 8a3d da64 4fbc 640a d6bd 3e4d ccbd
00000060: c338 7dbd f52e 39bd fc66 df3d 35c7 25bc
00000070: a90a 2c3e 1b63 5bbd 4a6f dcbd 45fc 083e
00000080: 45dd 823d 2867 b3bd 0e97 85bd d97e 8abd
00000090: e602 47bd 2138 c03d a818 ad3c aa9d 27be
000000a0: 09ec 80bd 897f 333b 6096 11be afd8 7fbd
000000b0: 1b52 a13d d2f3 8bbd 4d96 333d c2f8 a9bd
000000c0: b438 b9bd d2b5 943c b369 66bd 810d f3bd
000000d0: eb63 19bd 2e2c b83d f445 853d ae14 343c
000000e0: a6c3 4e3d 311c 13bc d7bd 143e 13d4 5f3d
000000f0: 586c a93c 0a4e 59bc 93dd e13d 7acf 9cbc
00000100: 1c02 bcbb 60bd a43d 28d5 a6bd f3fb a63d
00000110: 4e6a bbbb 996a b73d b6e5 95bd 23ed ea3d
00000120: 42a7 593d d445 b63d 4989 00bd bd74 243c
00000130: 6a99 953d bcb3 26bd 15ea 8c3d 917a 49bb
00000140: 08ea e1bd 3f1c e43d 7ff8 adbd b00e 4cbd
00000150: 5de0 bcbd e383 073d 4323 ffbc 647d 3e3d
00000160: f451 fcbc 35cc 093d 442c d4bd 3bde ad3d
00000170: bddd 31bd 922d dd3d 04f1 853d fc8d 80bd
00000180: 24d8 b8bd 1748 30bd 1a2a 84bd 0932 40bd
00000190: c6e0 be3d 98cb 39bc 5d9f 86bd 844c 11bd
000001a0: cd29 bebd 43cd 053d 9a72 bcbd 69a8 f23c
000001b0: 8a3c 8d3d 337b 803d 2cdb 7b3c 2100 58bd
000001c0: 867e 153d d1be 963d 5572 973d 461a 05be
000001d0: 651b c73d 1243 a4bc 308e eebc 8853 74bd
000001e0: ac3c 2b3d 3c02 b4bd 9f0b e03d 0a60 013e
000001f0: bb25 b3bd 936f 24bc 580a e03d 58ce 1c3c
00000200: e9a1 c5bd b578 063e 8ea0 6ebd dd1c f8bd
00000210: 8829 923b c9e7 c1bc b8ef bdbd 6dc7 643d
00000220: 172c 02be a091 363d 7f43 08bd 4a97 a7bd
00000230: 0526 fabd 09de 233d 12d0 1abe 2eae eb3d
00000240: 1d76 c7bd 816f e5bb 5e93 793d 7b3b c33d
00000250: 5771 0f3d a5f2 a73d 60f3 8cbc 6598 9abd
00000260: 6cce d73d e5d6 9cbc c441 d0bc 86e1 e8bb
00000270: 3ede d73c a167 983d 3aa7 323d 5921 1e3e
00000280: 99d6 633d 3509 be3d d9e8 013e ea95 acbb
00000290: 06ac bf3d 0a90 673d 0ae6 b43d 347a 6d3d
000002a0: ee5e c6bd ae29 373d 93f9 97bb ae26 a03c
000002b0: 9d00 593d 0931 90bc 4c1a 7bbd 3fcc 7f3d
000002c0: dc1d 1ebe 2a38 6abd 1b33 93bc 996c 5e3d
000002d0: e6bb 7c3d 4319 333e 5a01 12be 8120 a43b
000002e0: f3d4 babc 6c63 e8bd ef48 113e 4cc8 a53d
000002f0: 91c7 9bbd 8798 c33d 34da c73d a8a6 253d
00000300: 809f 3f3c 5865 f7bc f0a0 ba3c 383a 30bd
00000310: 98fd 84bc e2f0 bf3d 663a c5bd 3604 e5bd
00000320: f823 8fbc 5002 603d 84ca 5ebd 78ee ff3d
00000330: 604d 9fbd 20d8 febb d4fb b93d 04da a7bd
00000340: 321f a53d b44c 08bd 9845 aa3d e4cf 393d
00000350: 6c99 de3d 7297 b7bd 4c2e ac3d e0ec 4d3c
00000360: 48f9 8fbc 7a41 c33d 005c 86bd cc64 86bd
00000370: f65e e53d f8e5 1dbd 1828 fd3d 2c1d e2bd
00000380: c0bf 2fbc 28f5 bd3d 40a0 8a3c 0ccb 20bd
00000390: e494 4e3d 880e 57bd bcbc d0bd a405 27bd
000003a0: a0b1 0e3d 2ec3 8b3d 78fe d3bc bc2a b8bd
000003b0: d002 c83d e049 b5bb 64a5 533d 8271 b4bd
000003c0: f486 d23d 78a1 493d e0ad 6bbd 40a1 e13c
000003d0: 90a0 dabc 7a9a aa3d 44cb 1e3d a462 56bd
000003e0: 8018 7c3c 3491 edbd d85b e03c b02e abbd
000003f0: c05b 7a3b 9097 cbbc da0e c73d 20c7 d0bb

Fc_mid.bias f4 [64]
-0.009891534 -0.11834843 0.016408414 -0.05499983 -0.018982545 -0.0877476 -0.0013625105 0.0042441287
-0.0070426385 -0.085789114 0.0032626316 -0.037470967 -0.019590486 -0.097005785 -0.02029416 -0.05714792
0.048964497 -0.06419952 0.02092167 0.042467337 -0.0039393106 0.068108 -0.00791258 0.084882915
-0.011346821 -0.013092325 -0.048910066 -0.015293106 0.008085022 -0.053426772 -0.05956018 -0.016729163
-0.07206437 -0.11234452 -0.07531881 -0.012079284 -0.043070808 -0.030017436 -0.07264677 -0.009507349
0.030599106 0.030283283 0.0070944894 -0.017167728 -0.09949441 -0.0066983723 -0.019034244 0.004170841
0.008910451 -0.10724996 0.0027897984 0.0017104226 -0.05931893 -0.021433245 -0.09644422 -0.028426949
-0.0067653777 -0.049286872 -0.06881459 0.001362946 -0.08883299 -0.016997881 -0.06648578 -0.0058874576
00000000: 1a10 22bc a960 f2bd f06a 863c 8047 61bd
00000010: 4881 9bbc 04b5 b3bd 4496 b2ba 5512 8b3b
00000020: efc5 e6bb 34b2 afbd e0d1 553b 287b 19bd
00000030: 3a7c a0bc f8aa c6bd f03f a6bc f013 6abd
00000040: ff8e 483d 0a7b 83bd ec63 ab3c 3bf2 2d3d
00000050: 5515 81bb 357c 8b3d c4a3 01bc 18d7 ad3d
00000060: 04e8 39bc 3181 56bc ec55 48bd f08f 7abc
00000070: 0a77 043c 08d6 5abd 60f5 73bd 990b 89bc
00000080: 7c96 93bd e214 e6bd c040 9abd 30e8 45bc
00000090: 046b 30bd 20e7 f5bc d4c7 94bd b6c4 1bbc
000000a0: faaa fa3c a614 f83c e478 e83b 56a3 8cbc
000000b0: bac3 cbbd 057e dbbb b4ed 9bbc 8dab 883b
000000c0: 24fd 113c dea5 dbbd 0dd5 363b 4230 e03a
000000d0: 68f8 72bd c694 afbc 8c84 c5bd a2df e8bc
000000e0: 1ab0 ddbb 08e1 49bd aaee 8cbd e1a4 b23a
000000f0: 12ee b5bd 243f 8bbc b229 88bd 93eb c0bb

Fc_out.weight f4 [1, 64]
0.004271655 -0.111832894 -0.0053992723 -0.052001014 0.10227685 0.05315225 -0.0020448766 -0.018929562
0.007675685 0.05169289 -0.00014300567 -0.10540973 -0.010502185 -0.1001174 -0.029785387 0.0016952902
0.00041377923 0.061686248 0.0075403824 -2.5448214e-06 -0.00036686927 -0.0033017928 0.001112006 0.020297512
-0.012358638 0.08752952 -0.044429794 0.11929387 -0.000251887 -0.019869328 0.11414142 0.0015493367
0.051963106 -0.026846364 0.11144368 -0.026867747 0.052227795 -0.045541316 0.10989867 0.0039717495
-0.0009672035 -0.0033742753 -0.0010794515 -0.00075491966 0.07091369 -0.010228967 -0.039324693 0.0012002791
-0.0007119608 0.08790392 -0.007965874 -0.025352843 0.11562024 0.10111606 0.09540588 -0.054770313
0.0025986256 -0.062045917 -0.1112043 0.0012396515 0.06841688 -0.0038534214 -0.08545184 -0.004259873
00000000: 3df9 8b3b a508 e5bd 61ec b0bb 04ff 54bd
00000010: 8676 d13d 2cb6 593d 5603 06bb 2b12 9bbc
00000020: 5084 fb3b ecbb 533d cbf3 15b9 0ee1 d7bd
00000030: 5b11 2cbc 5a0a cdbd 7c00 f4bc 8034 de3a
00000040: 82f0 d839 b8aa 7c3d 5015 f73b b3c7 2ab6
00000050: 5c58 c0b9 e462 58bb bbc0 913a f846 a63c
00000060: e37b 4abc ad42 b33d 04fc 35bd 5850 f43d
00000070: b30f 84b9 00c5 a2bc fac2 e93d 1d13 cb3a
00000080: 44d7 543d e8ec dbbc 963c e43d c019 dcbc
00000090: d0ec 553d 8889 3abd 8e12 e13d 7325 823b
000000a0: ee8b 7dba f222 5dbb 627c 8dba cde5 45ba
000000b0: 323b 913d 6697 27bc ee12 21bd af52 9d3a
000000c0: e1a2 3aba f806 b43d 4c83 02bc c4b0 cfbc
000000d0: 4eca ec3d f015 cf3d 2864 c33d d656 60bd
000000e0: b44d 2a3b dc23 7ebd 14bf e3bd cd7b a23a
000000f0: 261e 8c3d af89 7cbb 6001 afbd 6896 8bbb

square_avg f4 [256, 4]
8.101807e-14 6.840837e-14 5.359565e-14 3.6557777e-15 1.3045398e-16 6.753017e-17 6.235598e-17 1.1016824e-17
7.9990946e-13 6.1195314e-13 4.783171e-13 3.427819e-14 4.4217074e-12 3.641574e-12 2.8669957e-12 2.4150433e-13
5.9449242e-12 4.215362e-12 3.3178113e-12 2.0390772e-13 2.8324983e-15 1.8765162e-15 1.5229977e-15 1.3349117e-16
1.2442159e-14 8.816062e-15 7.078667e-15 7.10251e-16 1.2756501e-14 9.411021e-15 7.53181e-15 5.7310133e-16
6.930188e-14 5.3663288e-14 4.180098e-14 3.3078231e-15 1.0073443e-11 7.280767e-12 5.7234547e-12 3.6209596e-13
2.995779e-18 3.691467e-18 3.0327498e-18 3.8048713e-19 1.1709127e-18 3.3695775e-18 2.7583343e-18 2.051626e-18
5.4549594e-12 3.8336166e-12 3.0219078e-12 1.8001747e-13 4.4169238e-14 3.6666867e-14 2.8800306e-14 2.7127679e-15
1.9861844e-12 1.5421768e-12 1.1788356e-12 5.906707e-14 1.0950642e-15 7.4800077e-16 5.957991e-16 3.776846e-17
1.5198856e-13 8.873235e-14 7.336356e-14 1.0166021e-14 1.3799647e-13 9.590253e-14 7.596621e-14 4.4007233e-15
9.284475e-14 7.435572e-14 5.654665e-14 3.840456e-15 1.5568989e-14 1.0348145e-14 8.288483e-15 4.4634364e-16
9.736785e-16 2.0564738e-15 1.65432e-15 1.0563165e-15 1.2673291e-16 1.6911852e-16 1.2422508e-16 4.241048e-17
7.918497e-18 1.0525009e-17 8.533479e-18 2.001606e-18 3.5369524e-12 3.698454e-12 2.915145e-12 3.345503e-13
3.1689207e-13 2.3994836e-13 1.8599633e-13 1.2809879e-14 1.8213995e-13 1.3237484e-13 1.0482838e-13 7.738611e-15
8.751855e-18 2.1803556e-17 1.9462082e-17 7.67648e-18 1.1434094e-16 1.8967299e-16 1.5068506e-16 3.3721047e-17
4.009431e-12 3.0677748e-12 2.396311e-12 1.7577639e-13 2.1510795e-14 1.6661972e-14 1.28964e-14 7.266947e-16
6.991868e-16 8.056492e-16 6.015984e-16 9.3730376e-17 5.1650094e-16 5.7334406e-16 4.5171505e-16 6.9296824e-17
7.542531e-15 1.2608988e-14 9.932247e-15 2.964414e-15 5.586516e-13 4.1136013e-13 3.2637724e-13 2.4395343e-14
2.8005494e-14 2.3395751e-14 1.8439828e-14 2.0400983e-15 1.3195708e-10 1.02279775e-10 7.974734e-11 5.431582e-12
4.5043286e-17 7.2504015e-17 5.91296e-17 1.0334554e-17 8.179393e-17 3.121768e-16 2.4559387e-16 2.228801e-16
7.748335e-15 1.2499488e-14 9.960104e-15 2.4008372e-15 5.1802566e-16 3.7217254e-16 3.018384e-16 2.6821085e-17
2.4799727e-14 2.2957285e-14 1.8207575e-14 1.7656655e-15 1.9909084e-15 1.6810279e-15 1.4627809e-15 2.4780298e-16
5.2093756e-14 2.4697182e-13 1.555953e-13 5.697406e-14 9.4741774e-14 7.7907136e-14 6.225163e-14 4.4697492e-15
2.4566248e-14 1.929993e-14 1.509727e-14 9.564077e-16 1.119732e-11 8.458087e-12 6.6848376e-12 4.8619203e-13
4.1215024e-14 7.836658e-14 5.363536e-14 9.01942e-15 3.1986135e-16 3.9108657e-16 3.2351762e-16 3.5175875e-17
3.352808e-11 2.5828008e-11 2.0192327e-11 1.4133464e-12 8.003569e-15 6.0334377e-15 4.8135633e-15 4.503854e-16
7.2513137e-12 8.2027145e-12 6.667147e-12 6.0400464e-13 1.4360214e-16 7.8212944e-17 6.80284e-17 4.1176017e-18
9.7363905e-12 7.2517535e-12 5.7017516e-12 4.036133e-13 1.26746955e-11 9.955508e-12 7.466828e-12 3.2881879e-13
1.8653048e-11 1.3986489e-11 1.0971289e-11 7.186149e-13 3.3652408e-13 2.5086836e-13 1.9860892e-13 1.42076834e-14
3.4373656e-17 8.149783e-17 6.724708e-17 1.0167479e-17 3.088914e-12 2.8943811e-12 2.2954136e-12 1.8026547e-13
2.5076672e-13 1.7733745e-13 1.4078018e-13 8.639346e-15 5.33741e-15 7.53647e-15 5.939356e-15 7.301637e-16
5.7263824e-13 4.7443836e-13 3.747074e-13 3.3494983e-14 3.103295e-14 2.4375699e-14 1.9113339e-14 1.4863389e-15
7.526375e-15 5.6127414e-15 4.383917e-15 2.370128e-16 1.9715122e-11 1.5157747e-11 1.1897272e-11 8.8242787e-13
00000000: bd6f b629 be0a 9a29 945f 7129 99b6 8327
00000010: 3867 1625 c7b6 9b24 79c8 8f24 7b39 4b23
00000020: 8d27 612b df3f 2c2b 61a2 062b 1060 1a29
00000030: 3393 9b2c 6220 802c 34bf 492c 71f4 872a
00000040: 1e2b d12c 9b50 942c 6078 692c 6694 652a
00000050: 5f1a 4c27 9d37 0727 b37c db26 a4e7 1925
00000060: 5523 6028 e9d0 1e28 2e09 ff27 46b7 4c26
00000070: facc 6528 ad88 2928 58ae 0728 6a2f 2526
00000080: d00d 9c29 8fad 7129 4041 3c29 915a 6e27
00000090: c136 312d a915 002d 4c60 c92c 87d7 cb2a
000000a0: aa0c 5d22 ec30 8822 06c7 5f22 9799 e020
000000b0: d5cb ac21 85a1 7822 7687 4b22 1f62 1722
000000c0: e8ed bf2c 26e2 862c daa5 542c 81ae 4a2a
000000d0: aaeb 4629 0522 2529 7eb4 0129 bc79 4327
000000e0: ebc3 0b2c c60a d92b 07e8 a52b d901 8529
000000f0: bdd0 9d26 b798 5726 37ba 2b26 212d 2e24
00000100: b81f 2b2a b8ce c729 3733 a529 7f22 3728
00000110: c65e 1b2a 0bf4 d729 8a0f ab29 828d 9e27
00000120: 5b11 d129 276f a729 d9a9 7e29 f45d 8a27
00000130: a53b 8c28 656a 3a28 e24f 1528 59a6 0026
00000140: 6552 8c26 3f2f 1427 a369 ee26 333b 9826
00000150: f41c 1225 fafa 4225 c638 0f25 7595 4324
00000160: 0b12 1223 f326 4223 376a 1d23 45b1 1322
00000170: 12e4 782c b620 822c 9522 4d2c c855 bc2a
00000180: f664 b22a 3414 872a cb69 512a 24c3 6628
00000190: 4412 4d2a 730a 152a 720d ec29 0b68 0b28
000001a0: 7771 2123 311a c923 8b81 b323 279b 0d23
000001b0: 7dd3 0325 96ad 5a25 61ba 2d25 c982 1b24
000001c0: be11 8d2c 1ee0 572c 1aa0 282c 18e8 452a
000001d0: 84c0 c128 e413 9628 2652 6828 9b74 5126
000001e0: e186 4926 6b36 6826 2066 2d26 a620 d824
000001f0: 0bdf 1426 5341 2526 b032 0226 a0c9 9f24
00000200: c9df 0728 b224 6328 68ec 3228 c99b 5527
00000210: 173f 1d2b 3e93 e72a ebbb b72a d5bb db28
00000220: 4640 fc28 eeba d228 5917 a628 2c01 1327
00000230: 9e16 112f 65ea e02e c35d af2e 571b bf2c
00000240: bab9 4f24 d12e a724 f557 8824 8da3 3e23
00000250: 9d9a bc24 2af5 b325 4293 8d25 4c7b 8025
00000260: e394 0b28 b72b 6128 df6c 3328 a1ff 2c27
00000270: 8c4f 1526 f98a d625 7cff ad25 7f61 f723
00000280: 4760 df28 e5c7 ce28 cfff a328 8f75 fe26
00000290: c775 0f27 fc42 f226 17cf d226 44d9 8e25
000002a0: 039c 6a29 6408 8b2a 4b2f 2f2a 4f4b 8029
000002b0: ea56 d529 686e af29 9f2d 8c29 290a a127
000002c0: e945 dd28 9cd6 ad28 effb 8728 37d5 8926
000002d0: 3ffc 442d d6cb 142d aa33 eb2c d4d9 082b
000002e0: b09d 3929 4277 b029 5c8d 7129 bc7a 2228
000002f0: 3463 b825 3172 e125 c67e ba25 5838 2224
00000300: 4375 132e 812f e32d 149d b12d 2ce9 c62b
00000310: f22d 1028 a460 d927 496d ad27 94d0 0126
00000320: 0722 ff2c be4d 102d 5294 ea2c 1f03 2a2b
00000330: df8f 2525 c658 b424 e1dc 9c24 a6e9 9722
00000340: ce48 2b2d fd25 ff2c d09c c82c ce36 e32a
00000350: c1f9 5e2d 9f23 2f2d 9b5b 032d c81b b92a
00000360: ee12 a42d 8c0d 762d 4b02 412d a945 4a2b
00000370: 3b72 bd2a f139 8d2a 209d 5f2a 60f1 7f28
00000380: 4085 1e24 d4eb bb24 ab0f 9b24 908e 3b23
00000390: ee5c 592c 89ac 4b2c 7f86 212c fcf5 4a2a
000003a0: 4b2b 8d2a 0aaa 472a 2081 1e2a f3a1 1b28
000003b0: eb4c c027 d5c3 0728 e4fc d527 9274 5226
000003c0: ef2e 212b e38a 052b 07f1 d22a 16d9 1629
000003d0: 8ec2 0b29 898e db28 5c28 ac28 3a34 d626
000003e0: 4795 0728 6738 ca27 7ff2 9d27 eaa0 8825
000003f0: 826a ad2d 3654 852d 8d4c 512d a161 782b

square_avg f4 [256, 64]
3.511648e-17 8.1589095e-20 2.1918185e-17 2.0236816e-15 4.245142e-17 1.3542328e-19 1.0175053e-19 2.6486658e-18
1.08688695e-17 1.9192381e-16 2.1445761e-20 5.3853893e-21 9.3785606e-17 3.389628e-18 4.4231336e-17 1.5522529e-19
1.8079402e-17 2.17351e-18 7.049067e-18 8.963243e-19 4.5322e-19 6.7472774e-20 1.1472808e-20 2.3849556e-17
1.0381858e-17 9.578078e-18 5.4197016e-20 6.078375e-20 4.460681e-17 7.511192e-19 1.208347e-19 5.524877e-19
3.0471665e-18 4.233832e-18 2.1269791e-18 2.4190524e-15 1.2900855e-19 6.2964555e-20 2.942494e-19 9.4513256e-20
6.899098e-18 3.6265382e-19 6.1424683e-18 1.4441452e-17 3.3799572e-19 5.363697e-16 2.9720579e-18 4.394177e-19
5.960454e-16 1.7230927e-19 1.8832977e-15 3.2596215e-20 6.2012214e-16 2.8764416e-16 2.8549722e-15 3.7804076e-17
1.4348205e-20 2.0791463e-15 2.1483667e-18 1.1077222e-18 1.909542e-17 3.5620296e-18 1.8241421e-18 3.3549744e-16
4.3377258e-20 2.5038003e-22 2.9989685e-20 2.4526058e-18 5.8050366e-20 3.1140005e-22 2.2360332e-22 3.551086e-21
1.4329062e-20 2.5288716e-19 1.9478978e-23 3.34473e-23 1.2440813e-19 4.9277132e-21 6.616891e-20 2.5063704e-22
2.9520793e-20 3.4743007e-21 1.06197575e-20 1.2566163e-21 1.3331547e-21 3.3033398e-22 5.71218e-23 5.7021566e-20
1.5089828e-20 1.27734426e-20 1.6333975e-22 1.158452e-22 5.697044e-20 1.0629309e-21 6.244366e-22 5.2932905e-22
3.4199673e-21 5.6448865e-21 4.772353e-21 3.216015e-18 1.1014604e-22 2.316232e-22 5.1417393e-22 1.774365e-22
7.6222375e-21 6.789763e-22 2.2998918e-20 2.0072925e-20 3.6633251e-22 6.955621e-19 1.4514315e-20 5.5085584e-22
7.950517e-19 2.7922682e-22 2.5969406e-18 1.1595416e-22 8.158616e-19 5.455088e-19 3.9059328e-18 4.9046327e-20
9.0246405e-24 2.9254678e-18 2.89434e-21 1.2396332e-21 2.4609118e-20 4.716166e-21 2.3240516e-21 4.350561e-19
2.884051e-16 6.5050316e-19 1.9655434e-16 1.66996e-14 3.815455e-16 1.2999215e-18 9.105487e-19 2.2147324e-17
9.672554e-17 1.6870012e-15 1.2258682e-19 3.5363037e-20 8.357885e-16 2.7913187e-17 3.9993873e-16 1.4060899e-18
1.5949697e-16 1.9823837e-17 6.4745504e-17 8.370998e-18 3.1641267e-18 6.310582e-19 5.610248e-20 2.2534147e-16
9.8300476e-17 8.373833e-17 2.2262036e-19 3.3145243e-19 3.763903e-16 6.8626076e-18 9.24306e-19 3.7296614e-18
1.5530498e-17 3.758529e-17 1.8915179e-17 2.1326374e-14 6.648614e-19 4.444527e-19 2.1746626e-18 8.144214e-19
5.2217725e-17 2.5458165e-18 3.4932985e-17 1.2646889e-16 2.5580403e-18 4.6755228e-15 1.8906277e-17 2.7236326e-18
5.2015933e-15 1.5470619e-18 1.6665419e-14 3.1544845e-19 5.4802795e-15 2.785198e-15 2.5428764e-14 3.3106547e-16
6.795056e-20 1.8725903e-14 1.9120632e-17 6.1349562e-18 1.5975138e-16 3.180799e-17 1.5508983e-17 2.9155207e-15
1.9489601e-15 5.3105306e-18 1.2501705e-15 1.1355626e-13 2.4246286e-15 8.722999e-18 6.47507e-18 1.5382424e-16
6.193848e-16 1.0909963e-14 1.1532932e-18 2.9068148e-19 5.312448e-15 1.9508122e-16 2.4048589e-15 9.307084e-18
1.0496074e-15 1.2917397e-16 3.8539186e-16 5.2485308e-17 2.2210198e-17 3.997978e-18 7.40946e-19 1.2723213e-15
5.889345e-16 5.5483183e-16 3.0383456e-18 3.315722e-18 2.4209714e-15 4.3042277e-17 5.7770604e-18 2.9438316e-17
1.6940749e-16 2.4479302e-16 1.30302e-16 1.3585876e-13 6.75623e-18 3.28574e-18 1.786883e-17 5.822244e-18
3.8506893e-16 2.2533126e-17 3.647035e-16 7.753123e-16 1.82946e-17 3.0344742e-14 1.6748892e-16 2.4477803e-17
3.3015914e-14 1.0394124e-17 1.0368203e-13 2.1009484e-18 3.5091247e-14 1.5488624e-14 1.5767173e-13 2.1611739e-15
6.615286e-19 1.1476268e-13 1.2456379e-16 5.5179988e-17 1.0694504e-15 2.0545429e-16 1.0458041e-16 1.9044089e-14
00000000: 39f2 2124 95a5 c01f da28 ca23 56d2 1127
00000010: cac5 4324 2de1 1f20 6c40 f01f e26f 4322
00000020: c97e 4823 e945 5d25 ab8c ca1e 4a74 cb1d
00000030: 4041 d824 431c 7a22 25fb 4b24 f741 3720
00000040: c8c0 a623 7160 2022 4708 0223 2d46 8421
00000050: 56c4 0521 ca50 9f1f 18b7 581e 2cf9 db23
00000060: f082 3f23 32af 3023 2cf0 7f1f 8685 8f1f
00000070: 6db6 4d24 f6b0 5d21 0ca8 0e20 ca10 2321
00000080: 59d7 6022 6a33 9c22 80f1 1c22 a44f 2e27
00000090: 714e 1820 bdab 941f b6b1 ad20 c229 df1f
000000a0: 2388 fe22 b212 d620 f99d e222 ea32 8523
000000b0: 7884 c720 1999 1a26 964c 5b22 76b1 0121
000000c0: 63cc 2b26 486d 4b20 b6b4 0727 68ee 191f
000000d0: f0bc 3226 c9d0 a525 f1b8 4d27 2d57 2e24
000000e0: d583 871e 7bd1 1527 8085 1e22 9078 a321
000000f0: c91f b023 6b6a 8322 1299 0622 af66 c125
00000100: e3d7 4c1f 6f58 971b 4e9f 0d1f 6af8 3422
00000110: 4b11 891f d33a bc1b f028 871b ff27 861d
00000120: 8c55 871e 3a47 9520 9d63 bc19 c0bd 211a
00000130: 0de0 1220 eb29 ba1d a73c 9c1f 3480 971b
00000140: 7368 0b1f 6041 831d ff99 481e fde4 bd1c
00000150: ed75 c91c b5ac c71b af1c 8a1a 6ca3 861f
00000160: f784 8e1e 9448 711e 3477 451b 5a0c 0c1b
00000170: 8584 861f 26a0 a01c 71b9 3c1c dafa 1f1c
00000180: e533 811d fe41 d51d 5e4b b41d ce4c 6d22
00000190: 8c28 051b f401 8c1b 4866 1b1c f081 561b
000001a0: e1fa 0f1e 3f35 4d1c f937 d91e 5b95 bd1e
000001b0: 366f dd1b 304b 4d21 7615 891e 687c 261c
000001c0: 68a8 6a21 42c8 a81b d29e 3f22 132e 0c1b
000001d0: c2cc 7021 7b01 2121 7e1a 9022 5f9d 671f
000001e0: db8f 2e19 86dc 5722 adb0 5a1d fd53 bb1c
000001f0: 326d e81e f52b b21d b299 2f1d e967 0021
00000200: 1541 a625 a1fe 3f21 9a9c 6225 a86a 9628
00000210: 2df2 db25 a5d5 bf21 8f5f 8621 e445 cc23
00000220: ae08 df24 5c1f f326 98b9 1020 4aff 261f
00000230: 4ee6 7026 13ba 0024 8a8c e625 9380 cf21
00000240: 32e3 3725 b6d7 b623 004b 9524 ec6a 1a23
00000250: aa78 6922 6941 3a21 de77 841f 88e6 8125
00000260: 5caa e224 6316 c124 7069 8320 ada7 c320
00000270: 67f9 d825 7f2f fd22 4b67 8821 a899 8922
00000280: 5a3e 8f23 e154 2d24 3476 ae23 4517 c028
00000290: 823b 4421 e62d 0321 3776 2022 f15f 7021
000002a0: cfcf 7024 1dd9 3b22 9719 2124 07cf 1125
000002b0: 04c0 3c22 1674 a827 2f61 ae23 f7f7 4822
000002c0: 3b68 bb27 594e e421 d71b 9628 3935 ba20
000002d0: a872 c527 d6b1 4827 bd0a e528 a4d8 be25
000002e0: 9871 a01f feaa a828 515b b023 0657 e222
000002f0: 492e 3825 3fb0 1224 8d0b 8f23 dd15 5227
00000300: f86f 0c27 8bec c322 272b b426 bab4 ff29
00000310: 81b6 2e27 33e9 2023 4fe3 ee22 e758 3125
00000320: 8886 3226 5389 4428 2f32 aa21 8b96 ab20
00000330: af66 bf27 d0e9 6025 d149 2d27 76af 2b23
00000340: ae43 9726 6ded 1425 cd29 de25 b70b 7224
00000350: 59da cc23 d67f 9322 4cb0 5a21 5f5c b726
00000360: b2bf 2926 5deb 1f26 ba30 6022 38a8 7422
00000370: 0a73 2e27 5a7f 4624 cb22 d522 a1c2 0724
00000380: 4450 4325 131d 8d25 5d3a 1625 9ff6 182a
00000390: ca42 f922 e071 7222 95cf a423 8acd d622
000003a0: 25fa dd25 d7d4 cf23 bd3c d225 f377 5f26
000003b0: e7bc a823 1ba9 0829 011a 4125 94c4 e123
000003c0: c2b0 1429 ddbc 3f23 9f78 e929 cb05 1b22
000003d0: 7409 1e29 5682 8b28 c885 312a 9fba 1b27
000003e0: b03f 4321 1736 012a be9c 0f25 0879 7e24
000003f0: c11f 9a26 67df 6c25 6125 f124 ae88 ab28
