checkpoints/TGP.pt (torch_old, 7013 bytes, 16 tensors)

lstm.weight_ih f4 [32, 4]
000000 09 e8 dd bd 26 08 38 3f 3c 44 7f 3f 69 ee e7 be
       -0.10835273 0.71887434 0.9971349 -0.4529908
000010 4b ca 7e be a2 a0 3b bf 7f 85 d4 3e 20 2f cc 3f
       -0.24881856 -0.7329198 0.415081 1.5951881
000020 0b cd bb 3f 06 65 81 3e e1 71 7f be 85 f9 ed 3e
       1.4671949 0.25272387 -0.24945785 0.4647943
000030 3e 63 b1 bf 40 4b 7b be d3 74 f4 be 91 58 17 3f
       -1.3858411 -0.24540424 -0.4774538 0.59119517
000040 a7 cc e3 3d 2b 5d ce 3c f5 69 0b bf 91 95 e5 be
       0.11123019 0.02519091 -0.5445855 -0.44840673
000050 f1 a6 01 bf 82 74 23 3f 1c 40 00 3f 23 a7 3c 3f
       -0.5064536 0.6384965 0.50097823 0.7369253
000060 76 a1 06 c1 fc de bd be 31 b7 4f bf 3f f0 6c 3e
       -8.414419 -0.37084186 -0.811389 0.23138522
000070 6c b8 ad 3e 4f 6e 95 3e bf ea 0d bf 5e 94 dd 3e
       0.33929765 0.2918572 -0.5543632 0.43277258
000080 23 ac 8a c0 59 f8 c6 bf fa 15 36 bf d4 7e a7 bf
       -4.333513 -1.554454 -0.71127284 -1.308558
000090 a4 9a 1d c0 ae 00 5b c0 49 53 66 c0 46 3f 1d c0
       -2.4625635 -3.4219165 -3.5988333 -2.456987
0000a0 fc 05 fe 3e b1 a0 71 bf 64 1d 9f bf 86 41 f9 bf
       0.4961394 -0.9438582 -1.2430844 -1.9473121
0000b0 7d 85 7d c0 97 51 e0 bf ff 29 4f bf bd b2 c2 bf
       -3.9612725 -1.7524899 -0.80923456 -1.5210797
0000c0 d1 27 13 3f a8 09 60 3f be 67 02 bf 78 29 d1 3d
       0.5748263 0.87514734 -0.5093955 0.10212988
0000d0 be 20 6c be 88 0a 2e 3f ab 40 85 3f e9 79 ea be
       -0.23059365 0.6798482 1.041036 -0.45796135
0000e0 97 99 1a c1 d7 f7 e1 bc 7a 5c d6 be 1e 62 79 3e
       -9.6624975 -0.027584 -0.4186743 0.24353835
0000f0 3b 2b 7d 3f a6 63 eb 3f c4 6e ec 3f 6f ba 83 3f
       0.9889409 1.8389785 1.8471303 1.029127
000100 6e 62 3c c0 34 82 a2 3e 1e e9 92 3e df 12 bd 3c
       -2.9435077 0.31739962 0.2869348 0.023080288
000110 8e cf 3f bf d7 73 b5 bd 28 05 4c 3e 27 35 92 3f
       -0.7492608 -0.08859985 0.19923842 1.1422471
000120 76 e4 24 40 12 ff b7 bd 2b 1f d4 3e 46 96 89 be
       2.5764441 -0.08984198 0.4143003 -0.26872462
000130 43 6a 20 c0 cc d5 ca be f0 f8 89 bf 3b 10 d0 be
       -2.5064857 -0.3961624 -1.0779095 -0.40637383
000140 74 13 0d 40 c2 84 a2 3e 4c d1 93 bd 1d d0 a5 3e
       2.2043123 0.3174191 -0.072176546 0.3238534
000150 0f 1e 97 3f 21 64 0d 3f de dc 40 3f 0d e0 a7 3f
       1.1806048 0.5523091 0.75337017 1.311525
000160 dc 1f 90 40 17 ff 81 bf 65 51 83 bf 4b e0 3a bf
       4.503889 -1.0155972 -1.0259215 -0.72998494
000170 c5 61 c0 be 45 97 83 be 0e 96 00 3f 13 4a 06 bf
       -0.37574592 -0.25701347 0.50228965 -0.5245678
000180 90 76 bf 3e 6d 04 5a 3f af 6f 85 3f 82 94 3f 3f
       0.37395144 0.85163003 1.0424708 0.7483598
000190 72 b7 ed be 61 3c 61 bf 5d a0 0b 3f 9e 41 b9 3f
       -0.4642902 -0.87982756 0.5454157 1.447315
0001a0 03 e2 dd 3f 44 36 5c 3e 7d 62 e2 3c 05 fe 92 3e
       1.7334598 0.21505076 0.027634853 0.28709427
0001b0 6a 06 be bf 3a 9b 8d be 08 e0 3d bf d8 a7 af 3d
       -1.4845707 -0.2765749 -0.7416997 0.085769355
0001c0 c2 c6 71 3f 0d 02 63 3e 36 53 46 3d 4d 3f 71 be
       0.94443905 0.22168751 0.0484192 -0.23559304
0001d0 a2 0e b6 be 51 8a 52 be b3 c8 99 3e 11 2d e1 3e
       -0.3555804 -0.20560576 0.30035934 0.43979695
0001e0 70 f0 14 c1 14 23 1c bf ca e4 30 bf be 11 27 3e
       -9.308701 -0.60991025 -0.69099104 0.16315362
0001f0 d9 a3 8d c0 1b 10 7b bf 5a c7 7a bf 17 a8 70 bf
       -4.426251 -0.9807145 -0.97960436 -0.94006485

lstm.weight_hh f4 [32, 8]
000000 d4 c0 36 bf 61 4a 87 bd c4 c4 a7 3f e6 f6 2e bf
       -0.7138798 -0.066059835 1.3106923 -0.6834549
000010 1b 58 5f 3f d9 1f ef be c7 c0 87 be 5f d4 ca 3e
       0.87243813 -0.46703985 -0.26514265 0.3961515
000020 81 fa 01 c0 5f 8b 79 3f 2c be 7c c0 aa 1f 41 40
       -2.0309145 0.9747829 -3.9491072 3.0175576
000030 9c d3 39 be 14 f5 de be 21 90 6a bf 09 ad b7 bf
       -0.18147129 -0.43546355 -0.91626173 -1.4349681
000040 9e 44 21 be 76 81 5e bf 4f 5c 58 3e 94 6e 4f 3f
       -0.15748832 -0.8691629 0.21128963 0.81028104
000050 23 f5 16 3d 3b 2e 3b 3f 27 87 c6 bf 60 27 b8 3f
       0.036854874 0.7311742 -1.5509995 1.4387016
000060 6c 92 01 3f a3 13 83 3f 89 59 18 3e 2e 20 ca bf
       0.5061405 1.0240368 0.14877905 -1.579107
000070 94 18 cf 3f e0 c5 c2 be e3 9b cf 3f 5b 43 d8 3e
       1.6179376 -0.38041592 1.6219448 0.42238888
000080 ce 3e 1d bf 5b d4 88 bf b8 2b c5 3e 69 c1 2c 40
       -0.6142396 -1.0689806 0.38509917 2.6993048
000090 c9 fa e3 3c b0 c4 27 be 3d 68 f4 be 2e dc 44 3f
       0.027829545 -0.16383624 -0.47735777 0.7689847
0000a0 d4 28 9b 3d 2d a5 71 bf bd c6 a4 3f 81 97 6f 3f
       0.07576147 -0.94392663 1.287315 0.9359055
0000b0 70 c0 bd 3e 34 eb 46 3e f4 95 80 3f 61 f0 fa 3f
       0.3706088 0.1942566 1.0045762 1.9604608
0000c0 eb 1e b5 3e 57 14 51 3f 8b c5 e4 bf 8e 24 b0 3f
       0.3537515 0.8167166 -1.7872785 1.3761156
0000d0 62 e5 96 bf 6c 11 5c bf 5a b0 0a c0 ad 59 6c bf
       -1.1788752 -0.85964084 -2.1670136 -0.92324334
0000e0 a5 4d 9e 3f cb a4 50 bd 81 ec 04 3f d2 85 43 3f
       1.2367445 -0.05093841 0.51923376 0.7637607
0000f0 5e 78 0a bf 67 6b 9f be 30 88 85 bd 00 44 a8 bf
       -0.54089916 -0.3113663 -0.06520116 -1.3145752
000100 d0 0d 25 c0 08 50 25 3e 85 d9 89 bf 24 db 7a 3f
       -2.578968 0.16143811 -1.0769507 0.9799063
000110 81 a4 03 bf df 31 82 c0 98 46 07 be 38 9e 92 bb
       -0.5142289 -4.068588 -0.13210523 -0.0044744276
000120 86 26 27 c0 9d 3c 17 3f 36 1f 92 bf 85 b8 d0 3e
       -2.6117263 0.59076864 -1.1415775 0.40765777
000130 cc 48 91 3f c8 67 cc bf 68 de d9 bc a7 30 3e 3f
       1.1350341 -1.5969172 -0.02659531 0.7429299
000140 05 1e 89 3f 84 84 14 40 fc ae f2 be 98 6d 2c 40
       1.0712286 2.320588 -0.47399127 2.694189
000150 1f 62 98 bf 7d 15 85 bf be f5 d4 bf f9 80 1a 40
       -1.1904944 -1.0397183 -1.6637495 2.4141219
000160 eb ec eb bf 5c aa fb 3c aa c4 6b be 96 8f e7 3e
       -1.8431677 0.030720882 -0.2302424 0.45226735
000170 23 3f 09 40 a4 4d aa c0 51 6a 04 40 6d 1c a9 3e
       2.1444786 -5.3219776 2.068989 0.330295
000180 56 e2 25 3f 48 9b d0 bf e5 ef b9 3e 85 6b 3a 40
       0.64798486 -1.6297388 0.36315838 2.9128125
000190 17 d3 e2 be 0e 86 8a 3f 95 07 59 bf 67 e4 be 3f
       -0.44301674 1.082216 -0.84777194 1.4913453
0001a0 ad 1f 1e 40 8f c0 69 c0 8b 71 d8 3f fd e4 aa 40
       2.4706833 -3.6523778 1.690965 5.3404527
0001b0 ec 6e 2c 3f 33 46 2c c0 cf 59 bc 3f 12 49 ea be
       0.67356753 -2.6917846 1.4714907 -0.45758873
0001c0 e8 d0 77 3f 5f 7a 61 3f e1 e9 2d c0 49 91 ec 3f
       0.9680314 0.8807735 -2.7173998 1.8481838
0001d0 5b 55 c2 bf 1a 2a 0d bf 55 b6 13 c0 26 ea aa bf
       -1.5182298 -0.55142367 -2.3080037 -1.3352706
0001e0 4a d1 9e 3e b5 ee d4 3d 4f c4 5f bd fd fb 11 3f
       0.3101905 0.10397092 -0.054630574 0.5702513
0001f0 30 92 8f 3e 3a 81 9c be 47 6f 0f bf b5 3c 78 bf
       0.2804122 -0.30567342 -0.5602917 -0.9696763
000200 63 0d 79 bf dd 1e f5 3e 18 dd 6e 3f d4 65 67 bf
       -0.9728605 0.4787511 0.9330611 -0.9038975
000210 41 ba e4 3f 6e 8e a7 3f b4 0d 84 bd 4f 45 4d bf
       1.786934 1.3090341 -0.06447926 -0.8018388
000220 c0 1e 65 c0 f7 a1 62 bf f8 18 80 c0 59 c0 94 40
       -3.5800018 -0.8852839 -4.003048 4.64848
000230 06 c9 bd 3f 1d 50 4a c0 23 e0 3e bf 95 19 27 c0
       1.4826972 -3.1611397 -0.74560755 -2.6109364
000240 9a 9e 3e bf 51 9f bd 3f c1 ee c6 bf 2b 36 ee 3f
       -0.74460757 1.4814245 -1.5541612 1.8610281
000250 32 10 c5 bf 4a ad 78 bf 23 68 dc bf e1 59 f5 bd
       -1.5395567 -0.9713942 -1.721928 -0.11980034
000260 29 0c 04 be 94 96 82 c0 f7 02 5a bf 46 83 29 bf
       -0.12895264 -4.080881 -0.85160774 -0.6621593
000270 0a 5e ad bf 1b 14 9c c0 40 7e 0c 40 95 47 bd bf
       -1.3544323 -4.8774543 2.1952057 -1.478747
000280 be 50 23 3d 0f 1f 82 bf 84 3a d0 3f a2 28 90 bf
       0.039871924 -1.0165728 1.6267858 -1.12624
000290 41 6b 9d bf 2a 0d 10 40 c5 c7 a0 be e6 db 49 3e
       -1.2298356 2.2508035 -0.31402412 0.19712791
0002a0 4c 66 bf 3f ca d2 29 be c8 42 06 40 89 b6 d3 bf
       1.4953094 -0.16584316 2.097826 -1.654008
0002b0 10 af 9f bf 58 d4 0b bf 25 04 30 bf 00 4d 20 40
       -1.24753 -0.54620886 -0.68756324 2.5046997
0002c0 38 7a 15 bf 02 9b ed bf cf b0 37 3e d1 fc 82 bf
       -0.58389616 -1.856293 0.17938541 -1.0233403
0002d0 28 f7 0d 3f 5c 54 d4 3f 6f 10 1b 40 81 29 be 3f
       0.55455256 1.6588244 2.422878 1.4856416
0002e0 d0 c7 74 bf bd a6 e7 3e 4b 15 13 bf dc 22 49 bf
       -0.9561739 0.452444 -0.57454365 -0.78568816
0002f0 93 d2 52 3e 60 2e 68 3f 1b 6d db 3d 9a bf d5 3f
       0.2058814 0.9069576 0.107141696 1.6699097
000300 2a e7 20 bf 2a d0 0b bf f8 1f a7 3e a8 c2 fe be
       -0.6285273 -0.5461451 0.32641578 -0.49757886
000310 95 11 19 3f 60 d9 cf be 6b af d9 be 9a fc 5f 3d
       0.59792453 -0.4059553 -0.42516646 0.05468426
000320 ca 29 e4 bf 19 fa e4 3e a3 9f 94 c0 10 2e 3d 40
       -1.7825253 0.4472206 -4.644487 2.9559364
000330 30 20 f6 be 5d c9 83 bf e0 3d a3 bf d2 f5 d5 bf
       -0.48071432 -1.0295826 -1.2753258 -1.6715643
000340 74 76 94 3d 21 1a d2 bf 24 2f 78 3e fc 0a 69 be
       0.07249156 -1.6414224 0.24236733 -0.22758096
000350 b0 93 e8 3e 70 19 b8 3f 8d 42 b2 bf 61 9f d2 3f
       0.45425177 1.4382763 -1.392656 1.6454889
000360 30 f8 19 3f 95 b0 00 40 04 99 0f 3f d0 ed da bf
       0.6014433 2.0107777 0.5609286 -1.7103825
000370 9c 25 83 3f 11 b8 fc 3e f3 41 e6 3f c8 83 07 3f
       1.0245852 0.49359182 1.7988876 0.5293546
000380 58 ef 33 be fe a4 a0 3e a6 9e 0b be 51 c8 e2 3f
       -0.17571771 0.3137588 -0.13634738 1.7717382
000390 19 0f b1 3f fb 0e 41 40 66 ce 9e bf 64 a2 f2 3f
       1.3832732 3.0165393 -1.2406738 1.8955808
0003a0 0a f4 74 be cd eb 62 bf 71 28 c6 3f 78 da 0c 40
       -0.23921219 -0.88641053 1.5481092 2.2008343
0003b0 d8 e2 19 3f 43 97 d5 3e ae aa 69 3f 8d 41 95 3f
       0.6011176 0.41716966 0.9127606 1.166063
0003c0 04 49 7b 3e e0 21 64 bf ef cb eb bf 88 02 81 3f
       0.24539572 -0.8911419 -1.842161 1.0078897
0003d0 5f 50 92 bf bd 0b 4d bf fd b7 d1 bf 0a 90 e4 be
       -1.1430777 -0.80096036 -1.6384274 -0.44641143
0003e0 f9 26 c4 bf a2 c9 02 c0 0d 58 4f 3e af 91 6d be
       -1.5324394 -2.0435567 0.20248432 -0.23200105
0003f0 d3 f3 b5 3f 88 29 7d 3e d0 ff ca bd 52 a9 82 3e
       1.4215034 0.24722874 -0.099120736 0.25519806

lstm.bias_ih f4 [32]
000000 78 5d e9 3e a8 12 b6 be 5d 35 86 be 60 72 06 3e
       0.45579123 -0.3556111 -0.26212588 0.13129568
000010 aa 40 29 bf d0 7b 3f bf 56 1b e5 be f7 6d 13 3f
       -0.66114295 -0.747983 -0.44747418 0.5758967
000020 f3 a6 b1 bf c0 22 6f c0 42 1a d9 bf 53 00 b1 bf
       -1.3879074 -3.736496 -1.6961138 -1.3828224
000030 f0 5b 0f be e8 8e 0a bf 23 13 ae 3d da cf 25 40
       -0.13999915 -0.5412431 0.08499744 2.5908113
000040 1c 00 cf 3e fd ab 28 3e 0e 1e a2 be c7 d1 3f 3f
       0.4042977 0.16471858 -0.31663555 0.7492947
000050 7d de 9d be b4 75 1e bf d6 34 89 bf 4a 11 83 be
       -0.30833808 -0.6189835 -1.0719249 -0.25599128
000060 32 cb 92 3f 05 89 1d bf d6 e0 b8 3e 7c c7 da be
       1.146826 -0.615372 0.36109036 -0.4273032
000070 54 02 ab 3f 11 1f 87 bf 37 8b 01 bf fa b7 83 bf
       1.3360085 -1.0556356 -0.5060305 -1.029052

lstm.bias_hh f4 [32]
000000 29 b8 84 3f 42 a0 33 bf 08 20 c6 be fb 90 ca be
       1.0368701 -0.7016641 -0.38696313 -0.39563736
000010 9b 3c d9 be 0f 49 38 bf 70 6b 0b bf 52 bf c5 3e
       -0.4242905 -0.7198648 -0.5446081 0.38622528
000020 fa 28 f6 bf 10 11 79 c0 af 3b b2 bf 12 82 c9 bf
       -1.9231255 -3.8916664 -1.3924464 -1.5742819
000030 21 cd cc bc 3d 82 33 3d 82 a6 a6 3e 4e fe 0c 40
       -0.025000157 0.043825377 0.3254891 2.2030215
000040 28 26 50 3e 51 7c 44 3e 89 1c 84 be 1e 15 69 3f
       0.20327055 0.19188048 -0.2580302 0.9104785
000050 0a c8 25 bf a9 fd 4f bf 3c b7 68 bf 7e 7b 37 bf
       -0.6475836 -0.8124643 -0.90904593 -0.7167281
000060 2d 33 16 3f 2d 5d 23 bf b3 ef cb 3d 1a 67 d5 be
       0.5867184 -0.6381405 0.099578284 -0.41680223
000070 5d 03 84 3f 59 27 a4 bf 7b 63 e2 be 68 ed 36 bf
       1.0313526 -1.2824508 -0.44216523 -0.71456003

Fc_mid.weight f4 [8, 8]
000000 78 b4 3d be 0b a4 1e be 5e 4c f8 bd ce 54 6b 3b
       -0.18525875 -0.15492265 -0.12123941 0.0035908702
000010 58 7d 64 3e 67 d8 ae be 0a b5 57 be 27 07 18 3f
       0.2231344 -0.34149477 -0.21065155 0.59385914
000020 e2 e8 39 bf bd 47 c6 bd d6 ed 47 3f 2f 57 20 bf
       -0.72620976 -0.09681652 0.78097284 -0.6263303
000030 59 b7 55 3f d7 ed 0e 3f e0 b3 08 3f 25 b9 67 3f
       0.8348289 0.55831665 0.5339947 0.90516883
000040 e0 6d 6f bf 19 91 9c 3f 86 3b 44 bf 52 46 2d 3f
       -0.9352703 1.223178 -0.76653326 0.67685425
000050 3b f0 fd bd 82 73 37 bf 94 02 8d be 8f 6a 22 bf
       -0.12399336 -0.71660626 -0.2754103 -0.63443846
000060 92 ba cc bf fd 1e 19 c0 86 d6 29 c0 40 90 32 3f
       -1.5994437 -2.3925164 -2.6537185 0.6975136
000070 ce e2 47 3e 67 c7 76 3f 20 c1 0f 3e 09 6d 3b 3f
       0.19520113 0.96398014 0.14038515 0.7321325
000080 ef d7 09 3f 6c fa 9f 3d d3 d9 06 bf b2 9f 7d 3e
       0.53845114 0.07811436 -0.52676123 0.2476795
000090 3d 1c c3 be 51 84 16 bf 7a 8d ae bf 9b e7 a6 be
       -0.38107482 -0.5879565 -1.3636925 -0.32598576
0000a0 18 77 1b be 90 ba 99 bc cc f0 fb bd 7b fc b4 3e
       -0.1518215 -0.018765718 -0.12301788 0.35348877
0000b0 68 c7 a4 3d 70 a8 78 be 2d 15 94 be dc 0a 91 be
       0.08045846 -0.24283004 -0.28922406 -0.28328598
0000c0 a7 f6 d9 bd 0c 7e 9c be 02 5a 70 be ed a9 13 be
       -0.10642748 -0.30564916 -0.23471835 -0.1442029
0000d0 fe 2b 7a 3e d6 b8 8d 3e 79 f1 48 be 30 46 98 3e
       0.24430844 0.2768008 -0.19623365 0.2974105
0000e0 2b a3 1f bd cf 72 db bd 1a bc 62 3e d6 f0 75 be
       -0.03897397 -0.107152574 0.22142068 -0.24017653
0000f0 bf 36 60 be c3 b4 97 3e a9 9d 8f 3d 36 d7 dd 3d
       -0.21895884 0.29630098 0.07012493 0.10832064

Fc_mid.bias f4 [8]
000000 72 46 88 be 65 7f be 3e dd 78 d2 bd 4a 43 72 3c
       -0.26616246 0.3720657 -0.10276959 0.014786551
000010 69 b0 81 be 55 b1 ac be a3 6e 81 be 00 b4 22 be
       -0.25329903 -0.33729044 -0.25279722 -0.15888977

Fc_out.weight f4 [4, 8]
000000 65 45 31 3c af 4d 32 3f 82 d6 ef 3c 26 90 11 bc
       0.010819768 0.69649786 0.02927709 -0.008884465
000010 08 e5 10 be a4 69 a2 bd db 4f 28 bd 06 09 90 bc
       -0.14149868 -0.079303056 -0.04109178 -0.017582428
000020 bb 20 ee bd 6e 79 87 bc 58 2b 7c 3e c8 fd be be
       -0.116273366 -0.016537394 0.2462591 -0.37302995
000030 88 69 e5 3c c0 7a 3c 3d b9 ca 24 3e 61 e6 97 be
       0.028004423 0.0460155 0.16092958 -0.29667953
000040 da be 22 bd f0 d8 75 bc 88 ef 68 3f a6 35 1c bf
       -0.03973279 -0.015005335 0.90990496 -0.6101936
000050 27 7f b5 3c 52 b2 7c 3e da 4a a6 3d 2b 7b 18 3e
       0.022155358 0.24677399 0.081197456 0.14890735
000060 72 2d 11 3e 0a d8 95 be 31 d7 99 be 57 6c 07 be
       0.14177492 -0.29266387 -0.3004699 -0.13224922
000070 3c fa cc 3d 40 84 6f 3c 74 c8 b3 bd 78 a2 dc 3d
       0.10008666 0.014618933 -0.08778468 0.10773176

Fc_out.bias f4 [4]
000000 c5 8f 45 3d f1 52 0a 3f 68 4c fb 3e 90 90 c5 3d
       0.048232812 0.5403281 0.4908173 0.09646714

square_avg f4 [32, 4]
000000 b8 e5 41 33 f3 f7 42 34 1d 8f 30 34 a4 18 9e 33
       4.5145242e-08 1.8157861e-07 1.6443342e-07 7.3619304e-08
000010 8f a6 ba 31 cd 7c 8a 34 50 02 84 34 e4 07 16 35
       5.432248e-09 2.5795308e-07 2.4588599e-07 5.5890837e-07
000020 6d 6d 4e 36 30 bb 51 36 07 5e 44 36 f1 0c 48 35
       3.0760086e-06 3.1252384e-06 2.9261007e-06 7.452464e-07
000030 de 45 85 32 8d fc 81 33 9d 89 52 33 2a df 4a 33
       1.551501e-08 6.052969e-08 4.9019594e-08 4.7234757e-08
000040 cd 10 63 34 c9 26 22 35 52 cd c2 34 76 74 89 34
       2.1147135e-07 6.040614e-07 3.6284706e-07 2.5602975e-07
000050 d7 94 82 31 11 25 8b 32 49 8b 82 32 01 d9 86 32
       3.800419e-09 1.6198586e-08 1.5197331e-08 1.5698335e-08
000060 81 9b 7f 31 bd 12 14 35 2e 0b e3 34 fc 01 55 34
       3.7195778e-09 5.5161564e-07 4.229018e-07 1.9837893e-07
000070 ab ce 5a 29 76 d2 77 2b 24 16 f0 2a 9d 49 e7 2a
       4.858498e-14 8.80441e-13 4.2647927e-13 4.1084922e-13
000080 a1 37 13 2d d8 2c e0 2e 3f 1e b7 2e 4b fd bb 2d
       8.368335e-12 1.01943065e-10 8.327249e-11 2.1371923e-11
000090 9b 85 4b 20 bd 1e a1 22 ba 45 7b 22 5d f7 ba 22
       1.7238975e-19 4.3671683e-18 3.4053756e-18 5.0677307e-18
0000a0 0b cf b1 30 49 c0 e2 30 29 f0 ac 30 66 29 8d 30
       1.293729e-09 1.6498315e-09 1.2582905e-09 1.0270866e-09
0000b0 8a 86 bf 2a 13 03 51 2b 36 56 2a 2b bf c9 c9 2a
       3.402177e-13 7.425598e-13 6.0515774e-13 3.5844762e-13
0000c0 42 d3 e8 33 08 78 b8 34 b2 a6 5f 34 0b 10 71 34
       1.08417694e-07 3.4360005e-07 2.0829137e-07 2.245071e-07
0000d0 7d 90 d7 30 92 90 21 32 6a 4e d0 31 c7 e1 0a 32
       1.5684375e-09 9.404305e-09 6.0625114e-09 8.083993e-09
0000e0 4a 08 f1 30 03 5f af 34 a8 c1 90 34 4d 08 dd 33
       1.7537414e-09 3.266542e-07 2.6962994e-07 1.0292624e-07
0000f0 ab f0 7f 20 0e 6d 8a 21 05 4f 13 21 cc 5c 76 21
       2.167897e-19 9.38011e-19 4.991012e-19 8.347086e-19
000100 17 94 29 3a 99 64 75 3a 5a 50 4c 3a 92 0f ab 38
       0.00064689055 0.00093609985 0.0007793956 8.1568156e-05
000110 9f b8 13 33 49 0f ca 35 1c 2f 2c 36 6e cb 9e 35
       3.4394017e-08 1.5054621e-06 2.5657419e-06 1.1831123e-06
000120 bf 66 50 38 d8 59 a5 38 12 49 88 38 e0 aa 54 37
       4.9686754e-05 7.884548e-05 6.498596e-05 1.267597e-05
000130 14 d1 55 33 ad c3 4c 34 f9 c1 3e 34 15 48 63 33
       4.9783083e-08 1.9070167e-07 1.7765696e-07 5.2918114e-08
000140 77 69 ef 33 0a 25 da 35 4d 4d cc 35 fe 5c 88 35
       1.1148489e-07 1.6253045e-06 1.5221682e-06 1.0159854e-06
000150 b3 21 68 33 51 d3 ba 34 cf 87 8c 34 70 af 0d 34
       5.404736e-08 3.4798953e-07 2.6175846e-07 1.3195472e-07
000160 6a 23 ed 2a 0e f2 a0 2d e4 a6 55 2d 31 a2 db 2c
       4.212423e-13 1.8297388e-11 1.2144705e-11 6.2423612e-12
000170 3c 9d 1a 2a c6 b6 d4 2b cd 41 5f 2b c2 49 37 2b
       1.3732499e-13 1.5114236e-12 7.931683e-13 6.511702e-13
000180 37 ad b5 32 4f e9 5d 33 dc 38 43 33 2e a5 51 32
       2.1149942e-08 5.1667765e-08 4.545369e-08 1.2202959e-08
000190 32 10 e8 31 c5 5d d4 34 cb 81 c8 34 30 29 79 35
       6.75393e-09 3.9556303e-07 3.734734e-07 9.2819664e-07
0001a0 ca be a1 34 d6 78 e6 34 d3 0f d5 34 84 5c f9 33
       3.0127404e-07 4.2928758e-07 3.9685855e-07 1.16117945e-07
0001b0 fc 93 e4 32 60 47 ce 33 f1 b6 a4 33 5e a5 b1 33
       2.6609989e-08 9.6056056e-08 7.670122e-08 8.272285e-08
0001c0 46 89 92 2f b8 64 84 31 59 08 86 31 ec c9 4b 31
       2.6654784e-10 3.853156e-09 3.9008623e-09 2.9655167e-09
0001d0 0c 99 19 32 49 5c 65 33 da 8c 6e 33 64 2f 8c 33
       8.940571e-09 5.340215e-08 5.5541797e-08 6.527878e-08
0001e0 c4 09 cb 31 d5 a2 bd 35 4f 73 9e 35 76 6c 1c 35
       5.909188e-09 1.4128988e-06 1.1805477e-06 5.827236e-07
0001f0 2f 39 e7 34 33 41 df 35 df 83 b5 35 88 15 81 34
       4.306871e-07 1.663377e-06 1.352393e-06 2.4043788e-07

square_avg f4 [32, 8]
000000 9f 25 94 32 72 29 27 33 ba 0d 13 32 fa 8c 93 30
       1.7246576e-08 3.8920412e-08 8.559647e-09 1.0735726e-09
000010 03 07 89 32 b0 d2 8d 2f 6b f3 59 32 3a 69 80 2f
       1.5952088e-08 2.5797453e-10 1.2686409e-08 2.3357832e-10
000020 13 71 71 33 7e 71 06 33 fc 8d 70 31 73 fd a3 30
       5.6215026e-08 3.1302527e-08 3.5005305e-09 1.1931846e-09
000030 b2 83 c2 32 fa 0e 9b 30 89 0d 66 33 da 4d 02 30
       2.264446e-08 1.1281991e-09 5.3563358e-08 4.740436e-10
000040 0e 1a 33 35 66 05 96 33 78 85 00 35 a1 e6 0e 32
       6.672061e-07 6.985901e-08 4.787794e-07 8.317927e-09
000050 03 84 48 35 aa 0a ba 31 00 e2 d2 33 1c 87 51 30
       7.469791e-07 5.414525e-09 9.819996e-08 7.622576e-10
000060 24 ca 80 32 40 bc 03 32 c0 fb cf 31 3f da e3 2e
       1.4993084e-08 7.668007e-09 6.0531136e-09 1.0361533e-10
000070 3e 22 cc 31 08 b0 44 2f 7e df 49 31 9b 2c 66 2e
       5.9410743e-09 1.7888635e-10 2.937639e-09 5.2335563e-11
000080 c8 7d 93 33 1f 60 3f 33 b5 7e 42 33 41 8e 7d 30
       6.8681004e-08 4.4558075e-08 4.5284384e-08 9.224302e-10
000090 99 fc 66 33 bf da b7 30 12 6f eb 32 6b b9 85 2f
       5.3780784e-08 1.3377174e-09 2.740811e-08 2.4324306e-10
0000a0 28 e1 6e 31 b4 67 e9 30 19 b1 5f 30 d2 cc 02 2e
       3.4761545e-09 1.6982455e-09 8.13786e-10 2.9740495e-11
0000b0 e1 2f c8 30 2e d7 36 2e a6 f4 68 30 91 cc 49 2d
       1.4565523e-09 4.1573127e-11 8.4748775e-10 1.147095e-11
0000c0 81 9b e4 33 3a aa 87 30 82 e0 e4 30 8c 5c a9 30
       1.0645363e-07 9.870924e-10 1.6652992e-09 1.2322672e-09
0000d0 f5 52 51 33 90 36 d2 2f b6 b9 da 32 00 11 80 30
       4.8737054e-08 3.8237546e-10 2.5462992e-08 9.318057e-10
0000e0 2a db 99 28 af 05 05 25 37 e1 d3 27 a7 47 4f 25
       1.708146e-14 1.1537837e-16 5.8808443e-15 1.7978665e-16
0000f0 6d 2d e2 26 98 86 3a 23 40 80 fe 25 0e b9 33 23
       1.5694213e-15 1.01115815e-17 4.4148882e-16 9.742796e-18
000100 3d 4e 56 2d 9f 32 4a 2c f0 0f 01 2c fa c2 09 2b
       1.2181864e-11 2.8734027e-12 1.834085e-12 4.894276e-13
000110 e8 4f b8 2c 0a e1 ca 29 45 38 9f 2b 50 7d 02 2a
       5.238466e-12 9.00964e-14 1.1313247e-12 1.1589796e-13
000120 3a f5 6a 21 b8 b9 f7 20 41 9e 0a 20 7a cb 90 1e
       7.960684e-19 4.1966326e-19 1.1741416e-19 1.5330749e-20
000130 54 99 b8 20 ed f1 bc 1e 48 8d b1 21 8c 83 c9 1d
       3.1272277e-19 2.0005332e-20 1.2031383e-18 5.3340273e-21
000140 0e ca ed 2f 1e 6f 89 2d 54 33 5a 2f f1 af 0e 2c
       4.3253617e-10 1.5624443e-11 1.984522e-10 2.027708e-12
000150 36 0c ba 2f 85 ae c7 2c e2 c5 1b 2f f1 25 82 2b
       3.384188e-10 5.6752957e-12 1.416747e-10 9.247586e-13
000160 ac fc 0c 2a d7 9f 6b 27 63 0f 98 29 97 3f c9 27
       1.2522161e-13 3.269945e-15 6.752825e-14 5.585765e-15
000170 bc 29 ef 29 ac bc a1 26 aa 67 1d 29 0d f4 87 26
       1.0620972e-13 1.1222759e-15 3.4950917e-14 9.433657e-16
000180 d1 94 35 33 e4 5d 5f 33 cf 0f a9 32 48 c1 01 30
       4.2277694e-08 5.2006627e-08 1.9681378e-08 4.7204596e-10
000190 8b c5 2e 33 2b c3 4e 30 40 15 1b 33 d6 ab 54 2f
       4.0692196e-08 7.5219714e-10 3.6108077e-08 1.9342336e-10
0001a0 3d 61 19 31 55 65 a9 2f 84 be 19 30 65 f6 4a 2d
       2.2319704e-09 3.0812922e-10 5.5931815e-10 1.1537081e-11
0001b0 4a cb 3a 30 7a cc 5f 2e ef 72 cf 2f ae 43 11 2d
       6.7955297e-10 5.088594e-11 3.7734746e-10 8.257324e-12
0001c0 9e 9a 8e 33 54 ca d0 2f 7a 91 68 30 c4 22 26 30
       6.640515e-08 3.7978742e-10 8.4607843e-10 6.0439853e-10
0001d0 4c b9 fe 32 34 e5 86 2f 4c 09 97 32 f7 42 13 30
       2.9653755e-08 2.4537317e-10 1.7582941e-08 5.357345e-10
0001e0 c5 c3 50 20 a7 af 14 1e df 28 ba 1f 97 5a a2 1e
       1.768306e-19 7.871379e-21 7.884168e-20 1.7189884e-20
0001f0 8c 0f c9 1f 45 c5 a6 1b a7 0f 42 1f 99 19 42 1c
       8.515253e-20 2.758988e-22 4.1094045e-20 6.42223e-22
000200 ae 86 52 38 e7 06 ab 36 05 06 a0 38 d1 26 cf 35
       5.0193332e-05 5.0970007e-06 7.630516e-05 1.5433999e-06
000210 87 8a fc 38 74 67 4a 35 a1 0a 08 35 ab 7d 01 35
       0.00012042099 7.540141e-07 5.0679415e-07 4.8239116e-07
000220 03 77 a6 33 fc c4 82 35 5f 91 0e 34 39 47 95 31
       7.7516255e-08 9.743085e-07 1.3277666e-07 4.344568e-09
000230 61 15 1e 34 51 30 e2 30 dd 81 2a 35 42 4e c4 30
       1.4722674e-07 1.6457397e-09 6.351891e-07 1.4283119e-09
000240 b3 3f bc 36 09 32 64 34 fe 2d 1e 37 ae 41 69 34
       5.610252e-06 2.1252357e-07 9.428242e-06 2.172371e-07
000250 5e e7 21 37 5a a0 e5 33 98 8c 8b 34 b3 74 59 33
       9.650217e-06 1.0692811e-07 2.5993063e-07 5.0630387e-08
000260 73 14 45 33 f8 af b8 31 c9 8a a2 33 f8 1c e9 30
       4.5886235e-08 5.37511e-09 7.568958e-08 1.6961215e-09
000270 11 7e 2b 32 85 c4 62 30 4c 1c 2e 31 d4 f7 23 2f
       9.982174e-09 8.249759e-10 2.5336417e-09 1.491281e-10
000280 88 52 3d 34 cb 86 38 34 61 46 07 34 ee b2 98 31
       1.7632021e-07 1.7185373e-07 1.2598458e-07 4.444124e-09
000290 8f 86 b8 33 a6 f4 26 31 ee dc f6 33 ca 79 c3 30
       8.592644e-08 2.4295246e-09 1.14954545e-07 1.4222732e-09
0002a0 15 12 1d 33 66 04 2c 30 ca c7 bd 31 12 21 29 30
       3.6570857e-08 6.2579486e-10 5.5233373e-09 6.152884e-10
0002b0 d8 e1 b1 32 0e 4b f9 2f ea 46 b6 31 ef a6 c7 2f
       2.0708214e-08 4.5346166e-10 5.304959e-09 3.6316503e-10
0002c0 94 ad 54 2c 90 f7 e2 27 02 75 df 29 2a 77 53 29
       3.0223367e-12 6.299601e-15 9.923487e-14 4.695477e-14
0002d0 57 8a c9 2b a0 83 8b 28 8d 3b ea 2a 23 56 ff 28
       1.4320306e-12 1.5489183e-14 4.1608072e-13 2.8348043e-14
0002e0 7f e2 4f 29 e3 74 0d 25 3b 9b ad 28 a1 9e a6 25
       4.6159687e-14 1.2269403e-16 1.9274179e-14 2.89039e-16
0002f0 74 22 a1 27 3b 68 d8 23 96 9c 28 26 60 58 97 23
       4.472383e-15 2.346291e-17 5.849892e-16 1.6408881e-17
000300 93 77 bb 31 86 84 f6 31 a0 83 5d 31 6c 6b 6d 2f
       5.4560103e-09 7.1746085e-09 3.2234553e-09 2.1593188e-10
000310 0e 3b da 31 b8 f1 96 2e ec 1f 24 31 86 80 73 2e
       6.351349e-09 6.864148e-11 2.3883286e-09 5.5365955e-11
000320 c7 af be 33 9d 86 5a 33 1e 5c c3 31 d4 5f ff 30
       8.879538e-08 5.087951e-08 5.6857195e-09 1.8580928e-09
000330 95 01 1b 33 80 2e e8 30 3c 98 c4 33 0f 43 52 30
       3.609019e-08 1.6893438e-09 9.1546525e-08 7.649285e-10
000340 ae d7 d4 33 1e 18 b0 32 2b b5 58 33 22 42 9f 30
       9.911251e-08 2.0500064e-08 5.045619e-08 1.1587569e-09
000350 db 83 9e 33 52 24 22 30 67 25 7c 32 e2 c3 2e 2f
       7.381433e-08 5.898687e-10 1.4676835e-08 1.58948e-10
000360 dd 4c d4 32 5f b8 49 32 76 ba 2f 32 51 2f 32 2f
       2.4715002e-08 1.1741661e-08 1.0228737e-08 1.6205816e-10
000370 3b 9f 2e 32 17 25 a6 2f 42 5f 9d 31 8e a3 bb 2e
       1.0164338e-08 3.0221578e-10 4.580131e-09 8.5328286e-11
000380 e4 6b c6 30 68 e6 4f 31 1c 3d d6 30 f4 47 43 2e
       1.443706e-09 3.0253435e-09 1.5587918e-09 4.4401774e-11
000390 a7 25 58 2f 6a 29 2b 2d 97 a2 8a 2f b2 b0 88 2c
       1.9658462e-10 9.72942e-12 2.521758e-10 3.8849696e-12
0003a0 2d de 91 32 e6 65 31 32 2f 1d 26 32 14 e6 87 2f
       1.6981256e-08 1.0325925e-08 9.669107e-09 2.4719837e-10
0003b0 82 9b 64 31 1a 8f e9 2f 05 e1 15 31 61 5d 08 2e
       3.3266763e-09 4.2484133e-10 2.1810262e-09 3.1005757e-11
0003c0 3e 4d cb 34 11 51 5b 33 50 f2 68 33 72 81 44 32
       3.7867898e-07 5.106364e-08 5.423709e-08 1.1438134e-08
0003d0 e1 a0 05 34 c1 af 1b 31 66 6a f6 33 2b 51 2d 31
       1.2445118e-07 2.2655373e-09 1.14746214e-07 2.5220952e-09
0003e0 09 17 cc 33 1c 48 5d 30 8f b8 ed 32 0d 73 12 31
       9.50368e-08 8.0501805e-10 2.7674359e-08 2.1311195e-09
0003f0 45 d4 91 33 90 69 fa 2f 9f 85 72 31 4e 96 c6 30
       6.7907e-08 4.5549742e-10 3.529159e-09 1.4449115e-09

square_avg f4 [32]
000000 b5 73 19 35 e4 9e 65 35 86 bd 11 37 d1 1f 63 34
       5.716532e-07 8.5540364e-07 8.6868e-06 2.1152597e-07
000010 a4 e6 51 35 ad 9a 3f 33 f1 76 ff 35 f7 f0 7b 2c
       7.8194194e-07 4.461133e-08 1.9033597e-06 3.5803008e-12
000020 52 48 c2 2f 03 c2 ac 23 9b 23 d9 31 e9 89 66 2c
       3.533978e-10 1.8730445e-17 6.319579e-09 3.2761521e-12
000030 0d 95 0b 35 80 5c 19 33 ec 15 92 35 86 67 91 22
       5.199843e-07 3.5707217e-08 1.0884228e-06 3.941194e-18
000040 a7 5e 45 3b 44 6e 71 36 6c 05 8c 39 7c ce 4b 35
       0.0030116232 3.5975982e-06 0.0002670692 7.592387e-07
000050 4c 4b 37 36 c5 36 a1 35 b3 fb 96 2e 39 eb d3 2c
       2.7312954e-06 1.2011375e-06 6.865921e-11 6.0230957e-12
000060 03 21 33 34 4f 14 b2 35 6b e5 a7 35 62 32 bd 34
       1.6682684e-07 1.3267944e-06 1.2509239e-06 3.5240652e-07
000070 1a a6 5e 31 0a 13 14 34 10 82 a0 36 9e 3f be 36
       3.239967e-09 1.37905e-07 4.783513e-06 5.6698473e-06

square_avg f4 [32]
000000 b5 73 19 35 e4 9e 65 35 86 bd 11 37 d1 1f 63 34
       5.716532e-07 8.5540364e-07 8.6868e-06 2.1152597e-07
000010 a4 e6 51 35 ad 9a 3f 33 f1 76 ff 35 f7 f0 7b 2c
       7.8194194e-07 4.461133e-08 1.9033597e-06 3.5803008e-12
000020 52 48 c2 2f 03 c2 ac 23 9b 23 d9 31 e9 89 66 2c
       3.533978e-10 1.8730445e-17 6.319579e-09 3.2761521e-12
000030 0d 95 0b 35 80 5c 19 33 ec 15 92 35 86 67 91 22
       5.199843e-07 3.5707217e-08 1.0884228e-06 3.941194e-18
000040 a7 5e 45 3b 44 6e 71 36 6c 05 8c 39 7c ce 4b 35
       0.0030116232 3.5975982e-06 0.0002670692 7.592387e-07
000050 4c 4b 37 36 c5 36 a1 35 b3 fb 96 2e 39 eb d3 2c
       2.7312954e-06 1.2011375e-06 6.865921e-11 6.0230957e-12
000060 03 21 33 34 4f 14 b2 35 6b e5 a7 35 62 32 bd 34
       1.6682684e-07 1.3267944e-06 1.2509239e-06 3.5240652e-07
000070 1a a6 5e 31 0a 13 14 34 10 82 a0 36 9e 3f be 36
       3.239967e-09 1.37905e-07 4.783513e-06 5.6698473e-06

square_avg f4 [8, 8]
000000 32 00 00 00 32 00 00 00 32 00 00 00 32 00 00 00
       7e-44 7e-44 7e-44 7e-44
000010 32 00 00 00 32 00 00 00 32 00 00 00 32 00 00 00
       7e-44 7e-44 7e-44 7e-44
000020 04 51 c4 39 8a e9 26 35 64 05 13 3a 79 77 12 37
       0.00037444395 6.2179663e-07 0.0005608408 8.730095e-06
000030 13 21 6a 3a e3 99 a1 36 15 9b 02 36 31 f4 83 36
       0.000893132 4.8160887e-06 1.946178e-06 3.932532e-06
000040 24 bf 36 35 ee 56 b5 35 bd 0d b2 34 eb 04 9e 33
       6.807843e-07 1.3510851e-06 3.316508e-07 7.358343e-08
000050 0e 67 1f 35 35 f7 6c 32 50 a7 64 35 e0 1e 92 32
       5.938208e-07 1.3793216e-08 8.518009e-07 1.7010677e-08
000060 52 19 80 35 86 20 82 32 c9 5f fa 34 23 4b 59 33
       9.544112e-07 1.5148782e-08 4.6635822e-07 5.0592586e-08
000070 c3 67 10 35 ff 21 47 33 25 28 8e 34 ec 24 8c 32
       5.3795173e-07 4.6364217e-08 2.647877e-07 1.6314935e-08
000080 92 f0 da 36 22 d9 93 33 53 d4 74 33 e7 f1 7b 33
       6.5249124e-06 6.884717e-08 5.7003785e-08 5.86605e-08
000090 24 17 38 36 26 17 19 33 c8 78 04 36 24 08 66 33
       2.7431606e-06 3.5644142e-08 1.9739837e-06 5.3558452e-08
0000a0 00 00 00 00 00 00 00 00 00 00 00 00 00 00 00 00
       0.0 0.0 0.0 0.0
0000b0 00 00 00 00 00 00 00 00 00 00 00 00 00 00 00 00
       0.0 0.0 0.0 0.0
0000c0 32 00 00 00 32 00 00 00 32 00 00 00 32 00 00 00
       7e-44 7e-44 7e-44 7e-44
0000d0 32 00 00 00 32 00 00 00 32 00 00 00 32 00 00 00
       7e-44 7e-44 7e-44 7e-44
0000e0 32 00 00 00 32 00 00 00 32 00 00 00 32 00 00 00
       7e-44 7e-44 7e-44 7e-44
0000f0 32 00 00 00 32 00 00 00 32 00 00 00 32 00 00 00
       7e-44 7e-44 7e-44 7e-44

square_avg f4 [8]
000000 32 00 00 00 5c 66 bf 3c 7c 7f e3 37 f5 f5 3d 38
       7e-44 0.023364238 2.7119873e-05 4.5290177e-05
000010 be 32 da 38 00 00 00 00 32 00 00 00 32 00 00 00
       0.000104045015 0.0 7e-44 7e-44

square_avg f4 [4, 8]
000000 32 00 00 00 1e 65 8d 3c de 96 52 35 ff aa b9 35
       7e-44 0.01726013 7.8450637e-07 1.383334e-06
000010 39 89 c6 38 00 00 00 00 32 00 00 00 32 00 00 00
       9.4669354e-05 0.0 7e-44 7e-44
000020 32 00 00 00 e5 9a 21 3b f1 20 34 35 30 b4 b9 35
       7e-44 0.0024658975 6.710316e-07 1.3836016e-06
000030 06 36 3f 37 00 00 00 00 32 00 00 00 32 00 00 00
       1.13970655e-05 0.0 7e-44 7e-44
000040 32 00 00 00 59 20 79 3b d3 14 4a 35 af b9 6c 35
       7e-44 0.0038013665 7.528117e-07 8.8187056e-07
000050 1d cb a5 36 00 00 00 00 32 00 00 00 32 00 00 00
       4.9410287e-06 0.0 7e-44 7e-44
000060 00 00 00 00 00 00 00 00 00 00 00 00 00 00 00 00
       0.0 0.0 0.0 0.0
000070 00 00 00 00 00 00 00 00 00 00 00 00 00 00 00 00
       0.0 0.0 0.0 0.0

square_avg f4 [4]
000000 b1 b4 61 3d 85 06 f8 3b d8 4d 01 3c 00 00 00 00
       0.05510396 0.0075691366 0.007892095 0.0
